Baseline/Kan_gan.pth (torch, 58493 bytes, 46 tensors)

lstm1.weight_ih_l0 f8 [40, 7]
0	0x3fa61f6d3062ed26	0.04320851531653096
1	0x3fbae0e4898909d9	0.10499409063144273
2	0x3fcc75e35077ecc8	0.22234765462039818
3	0xbfc80677727171ab	-0.18769734466594676
4	0xbfa9bea8c9c5c6f6	-0.050282740240516974
5	0x3fc0c7872753e191	0.13108910961433343
6	0x3fceb9015bf22861	0.24002091397807404
7	0xbfd88fdadad08577	-0.38378020638091165
8	0x3fb3971984edf653	0.07652434821462721
9	0xbfce4c5a0a30067e	-0.23670506951753006
10	0x3fd52fa411bd63e0	0.33103276951220373
11	0x3fc72401c37ac864	0.18078634304908114
12	0xbfc29df12df86eaa	-0.14544501061106035
13	0xbfd23c22c0b61a3e	-0.28492039508310885
14	0xbfd78b0e6637bcd0	-0.36786231977653205
15	0x3fd086d7043fd559	0.25822997488952165
16	0x3fc77d29541bc8c0	0.18350712401258384
17	0xbfadd5f8651438a5	-0.05827308877825147
18	0x3fb3ab46bd75e417	0.07683221936703465
19	0xbfbfe739e665b8e5	-0.12462198138175358
20	0xbfd055d92e11eeef	-0.25523976801899456
21	0x3fa0a5b6e45ec945	0.032514300706127965
22	0xbfc9bf93246b1d08	-0.20115889814608345
23	0x3fb4ccc2037fe020	0.08124935708463044
24	0x3fcf8e8c2154d66d	0.2465377009154283
25	0xbfc96c745eab296c	-0.1986222707985904
26	0xbfb55eea18c5cb55	-0.08347952942658073
27	0x3fa1b55072eb6f4d	0.03458644297435729
28	0x3fc48df03adb9aec	0.16058161615293132
29	0x3fbc49245f682ec8	0.11049105958243921
30	0xbfc3c7cff8cf0926	-0.15453529023040707
31	0x3fa4699f9b6880cb	0.039868343086938283
32	0xbfc488379925dfad	-0.16040701845099417
33	0xbf93eb7c0b170705	-0.01945298974693001
34	0xbfb24ae8b7643037	-0.07145552136734144
35	0x3fc86f54e1e70572	0.19089756994621215
36	0xbfb90450909ccd24	-0.0977220871980547
37	0x3fb586be533342d7	0.08408727198844744
38	0xbfd682fb25061e66	-0.3517444478570496
39	0xbfb9c1b204187abc	-0.10061180686941901
40	0x3fb366d2b1c9edea	0.07578770485445543
41	0x3fc79ce3126e84c1	0.1844753112791633
42	0x3f9e6c954b79a690	0.029711086970940104
43	0xbfbd7c9510698646	-0.11518222475708581
44	0x3fc41777b97892ca	0.15696617656899142
45	0x3fdd9dd7a2bbe99b	0.4627589310836357
46	0x3fc358327177d287	0.15112906017715863
47	0x3fc046d59403be4a	0.1271616909721039
48	0xbfc3fdd6bdbb9faa	-0.15618404640485767
49	0x3fc30b61bb6cfccb	0.1487848439373692
50	0x3fa7f6b4942b8384	0.04680408772197267
51	0x3fd0ec5a83052944	0.26442587656915273
52	0x3fc72b0343b6c39f	0.18100014501899594
53	0x3fd3bf3101db61f7	0.3085443990835581
54	0xbfb909c356f6303b	-0.0978052222546361
55	0xbf9bc7244b4fc8bf	-0.02712685308137774
56	0xbfbdbaf7c8938e82	-0.11613415381321526
57	0x3fb5fcbdf594f875	0.08588778730060816
58	0xbfc6523ca4c30a97	-0.17438467068685234
59	0xbfb89f9f59dd257c	-0.09618564552251557
60	0x3f9de7af988b6ad7	0.02920412415083259
61	0xbfc2c7cfbea8641d	-0.14672276315175817
62	0xbfda1bce45e240eb	-0.4079471285304083
63	0xbfb38f4e17e4c396	-0.07640541156139444
64	0x3fc2a939feef9a67	0.14578938434643193
65	0xbfd1dee304e12e5a	-0.2792289302494503
66	0x3fc7774500ff14aa	0.18332731770184313
67	0x3fda8b3aa87f8a90	0.4147478719225228
68	0xbfb5cd3d51d77022	-0.08516295669636567
69	0xbfc0d1fc3a39a6b2	-0.1314082416823133
70	0x3fc7bdb2cbf0de43	0.18547663648654308
71	0xbfb0659c73b74a1b	-0.06405046296212229
72	0x3faf484ff77306bc	0.06109857459661103
73	0xbfd5fbcac84ad053	-0.34349317130841434
74	0xbfd51937884ad049	-0.3296641188601411
75	0xbfa53559e1a887eb	-0.04142266158693516
76	0xbfcecab8e2326177	-0.24056159062162027
77	0xbfc4a39c97642170	-0.16124303238053583
78	0xbfadff785e8936ce	-0.058589707889593265
79	0x3fb1c118f1d6558f	0.06935268310765806
80	0x3fb268bf58fba1e6	0.07191081926760709
81	0xbfcf390abb822edc	-0.2439282813614828
82	0x3fb7059c417d9453	0.08992935751810309
83	0xbfb9e0e6e30ab755	-0.10108798068060072
84	0x3fa2791140e717aa	0.03607992093343111
85	0x3fc464ca5889c5e5	0.15932587931779021
86	0xbfcec1c07a61ce9a	-0.24028783775030577
87	0xbfb6af663e934180	-0.08861388232913292
88	0x3f8cab1c8b65f62c	0.013998244289491778
89	0x3fc490013fc64145	0.16064468015657432
90	0xbfc6049020107190	-0.17201425138126725
91	0x3fd1a8511796f769	0.2758982401245392
92	0xbfcfe96a0bd9957e	-0.24931073740587445
93	0x3fcf98face194086	0.24685607016954608
94	0xbf8711af2ca1a49e	-0.0112641988273075
95	0x3fcde0170035e5d7	0.23340117941169922
96	0x3fd1ee4bc81f6e77	0.2801694349597947
97	0xbf93a289bdb4a248	-0.019174720958434116
98	0xbfc0579cc2c5b16f	-0.1276737166439363
99	0x3fb538df782c8028	0.08289906200343522
100	0xbfd2058bbe13f4b9	-0.2815884929876336
101	0xbfc3502e18caf542	-0.15088440142236875
102	0xbfc35acd54caf541	-0.15120855942033454
103	0xbfcb7bb7d4c392db	-0.2147130764853021
104	0xbfd0972f98ed8022	-0.25922765669202097
105	0x3fce3a5c944ce155	0.23615605584360347
106	0x3fa9bd095e4ba636	0.05027035976474929
107	0xbf81809babb42e41	-0.008546081712231703
108	0xbfcb63dcf7556a9d	-0.21398508145178577
109	0xbfd7d0861baab5c7	-0.37210228635634873
110	0xbf8ed48be2b7f37a	-0.015053837639237722
111	0xbfc4e0eddc3f698a	-0.16311429266245298
112	0xbfd5b4676117c2f0	-0.33913597566338094
113	0xbfbace8327dcaab2	-0.10471362803643094
114	0xbf8d0165fcbeb17d	-0.014162823463117697
115	0xbf9517ef621637d7	-0.02059911762403729
116	0x3f992c6a35e9c7a8	0.024583491840935473
117	0x3fc66f97f1c89ef9	0.17528056436389486
118	0x3fc0cd52874123ff	0.13126594166013203
119	0x3fcf46bc89201094	0.24434620566910736
120	0xbf6b91295757d385	-0.003365116829395056
121	0x3fcf92594c04fdae	0.24665371143235632
122	0xbfb8bd8bd97bce1e	-0.09664224681528608
123	0x3fc5ce2d8b4218bb	0.17035455035892774
124	0x3faebcbf6cf7c2c6	0.06003378110097439
125	0xbf5e4b72d656572f	-0.0018490430314605612
126	0x3f79ca59ce8df853	0.006296492393515224
127	0xbf3fc3b20aba480c	-0.0004846868202800232
128	0xbfd19da5790e8f39	-0.2752469713398003
129	0xbfc9ed3902555a8b	-0.20255196203170941
130	0xbfce036b4a555a98	-0.23447934274255
131	0x3fbfe0729380d86e	0.12451854802279325
132	0xbfd25ea359ae22ae	-0.28702625043710384
133	0xbfc2efe4db1deccd	-0.14794598292414776
134	0xbf97682e02b79fe2	-0.022858351627206626
135	0xbf69c0a6de14e463	-0.003143621361826153
136	0x3fc100cf7ba45f72	0.1328372338982678
137	0xbf98229462dd03dc	-0.02356941083349172
138	0x3fb602e800aa2828	0.08598184601046965
139	0xbfd2187701e02bd9	-0.282743217307766
140	0xbfc22a46abb6ebc5	-0.14191516289233
141	0x3fc64f87015bb51f	0.17430198255844062
142	0xbf9787e38faecfde	-0.02297931255789353
143	0xbf7d772ff0107d1a	-0.007193743950693299
144	0xbf9ff3f1dc041ef9	-0.031204012922016997
145	0xbfb0c63e0bc81fc2	-0.06552493846549992
146	0x3f7517d0d08e7215	0.005149665529554888
147	0x3fd0199eb9ab786d	0.2515637219602301
148	0x3fa992f6ae107c6e	0.04994936823663286
149	0xbfc99a0270885737	-0.20001249785189554
150	0xbfc54d5b19d53861	-0.16642321359035164
151	0xbfc12454e9d53859	-0.13392125527974733
152	0x3fb0153d445818c7	0.06282408636625113
153	0xbfc09feea24b59d2	-0.12988074230697905
154	0x3fc99f2aa5f7c370	0.2001698789968276
155	0xbfa777d7a6e58109	-0.045836199877841884
156	0x3fa22f854e12fe06	0.035518804340878105
157	0xbfd1fdac3ac601b5	-0.28110795726390886
158	0x3f87674e873fc88f	0.011427510740734696
159	0xbfd16081ecdfb76e	-0.2715153516027077
160	0x3fc326977c9fd3f5	0.14961522660419715
161	0xbfd597f6d6dab02a	-0.3374001596628228
162	0xbfd3faa892f469c5	-0.31217398024605486
163	0x3fa3b98ec785b2df	0.03852506814550848
164	0xbfa61b92c1e2948e	-0.043179117362606254
165	0x3fcbaedc9f875b41	0.21627385892380782
166	0x3fc5a1e9293c1d78	0.16900362504405186
167	0xbfa85538ba740f3b	-0.04752518917123757
168	0xbfc629605056b450	-0.17313770220553915
169	0x3fcf0d46d48d054c	0.2425926721426016
170	0xbf9907b3ca1ba901	-0.024443444452949773
171	0x3fd6a348bc3cb081	0.35371607191587634
172	0x3fc57497287960c5	0.16762055851245897
173	0xbfb443cc7c7639c4	-0.07915952719324709
174	0xbfc5e6b0b3b77011	-0.1711026074907527
175	0x3f897f7c67811843	0.01245019141073212
176	0xbfb47059dae99295	-0.07983934015789836
177	0x3fcaab121abf7d1b	0.2083456640820963
178	0xbfcae7fb0df976f5	-0.21020448858592258
179	0x3fbf812e640d11ed	0.12306489889767365
180	0x3fb3e60471aae87c	0.07772853636825688
181	0x3fcd659d8a7a6116	0.22966355573294867
182	0x3f5fe09f5012cb22	0.00194564397706349
183	0xbfc47d8d110f6d9c	-0.1600815137197572
184	0x3fd14c1f53c5ff89	0.27027114087103904
185	0x3fc17e1d65873853	0.13666121919090077
186	0x3fa0eaf9d61ce083	0.033042724024597646
187	0x3fc1d119c92d6d34	0.13919374774091298
188	0xbfb3098a04dc6001	-0.07436430567429399
189	0xbfb2da2a742f5f8a	-0.0736414464621459
190	0xbfa8ca58b0aab360	-0.04841878086640494
191	0x3fc04a8aa72d5b87	0.12727482951114785
192	0xbfb36e5f8c1664b4	-0.07590291185478543
193	0x3fcc65a069f4cd9a	0.2218513982166826
194	0x3fad4a41325d999f	0.05720714320959818
195	0x3fc69a81dd62877b	0.17659018811997015
196	0xbfd1bd97ce9a831d	-0.2771968381512567
197	0x3fbefd8d345f4660	0.12105639008157132
198	0x3fc65ea3989b2640	0.1747631545206776
199	0x3f85b8ae460a543c	0.010606156837903773
200	0x3f87004ac60a544b	0.011231025856696905
201	0x3f713b49878ef4a3	0.004206931328494398
202	0xbfd0309cf7856edf	-0.25296711132044253
203	0xbfb002539b6efbd0	-0.06253550095333016
204	0x3fc3fcef5da7c993	0.15615646431940586
205	0xbfc73e2afb716947	-0.1815847137211881
206	0xbfd9759f8df97413	-0.3978041540593164
207	0xbfcffa087bf2e7e2	-0.2498179059237478
208	0x3f933b0c61812eb7	0.018779939128122005
209	0x3fc21e6ca72c11dd	0.14155347979261892
210	0xbfcfa65d19baab75	-0.2472645164137607
211	0xbfc7711b6b6dd7a3	-0.18313925500450265
212	0xbfbbe4ca926ad0d1	-0.1089598281349169
213	0xbfbd18078ca9cb4a	-0.11364791092073037
214	0xbfd7adc4e32a72ba	-0.3699810236374038
215	0xbfc95288c8aff829	-0.1978312473219728
216	0xbfd0c252da72c3c6	-0.2618605740818193
217	0x3fc232a072aaca9a	0.14217000578863265
218	0xbfbefc1f16740842	-0.12103456781554292
219	0x3fc3f096f4854b73	0.1557797140072484
220	0x3fb94ef12a0e2dc0	0.09886081005804837
221	0x3fd5a26edb838bc2	0.3380391257944063
222	0xbfc07f90e4deb8b0	-0.12889300513547175
223	0x3fa1f606d3ce038b	0.03508015952593898
224	0xbfc2f76e0b10b9fa	-0.14817595997142502
225	0xbfc07165b6e60023	-0.12846061163509245
226	0xbfce22bb03e4b32d	-0.23543489160638256
227	0x3fb6208373cb094f	0.08643361641865009
228	0xbfcbf078c61a7b24	-0.21827611611384967
229	0xbfca604fafab27b1	-0.206064186835929
230	0xbf9b430b4488f928	-0.026622940118835065
231	0xbfd0babaa55dfb92	-0.26139703892834476
232	0x3fa2e4a5343cb475	0.0369006754175211
233	0x3fb0ed858aeaa65e	0.06612429276960927
234	0x3fd17cebda285013	0.2732495909160672
235	0x3fd16ce67a285013	0.27227174691620454
236	0x3fce078ca2f011ce	0.23460538822122462
237	0x3fc674f9e6eceb51	0.17544482970864775
238	0x3fd8dc197940d366	0.38843380776534386
239	0x3fd2aedcb391b344	0.29192273651169764
240	0x3f9634d368e1ca1a	0.021685889507759716
241	0xbfa22e565b0514af	-0.035509775744267606
242	0x3fa5c51754faeb44	0.042519311069062954
243	0xbfab0668ad6fe559	-0.052783270999450856
244	0x3f749be37b525724	0.005031479454506802
245	0x3fc14ec9827767b3	0.13521689291411362
246	0xbfd64e9e98093696	-0.3485485539175469
247	0xbf947704999f5e01	-0.019985267521262177
248	0xbfd104ed265d7f60	-0.26592568155864704
249	0x3fb47482668a0318	0.07990279200931771
250	0x3fbd976d99aa1c6a	0.11559185983252154
251	0x3fd695457a794d56	0.35286080322585656
252	0xbfc5f882c8a7578a	-0.1716464500192923
253	0xbfc01cb0ceca6b11	-0.12587556931688273
254	0xbfa9afdbd0809f72	-0.05016982002444949
255	0xbfd14d2abb22bcd8	-0.27033489489526863

lstm1.weight_hh_l0 f8 [40, 10]
0	0xbfaad6b4810a296c	-0.052419319869914854
1	0xbfce89eb5a0170ed	-0.23858396429830667
2	0xbfb1423ffb8c9223	-0.06741714373908585
3	0x3fa2fd0faf5ccf26	0.03708695426612811
4	0x3fc5dd6a2b9b3386	0.1708195412560622
5	0x3fd2fc576986abc6	0.2966517000701824
6	0x3fd0fa986c35e46a	0.26529512946542033
7	0x3fd7370d2d1aaacd	0.36273507504180885
8	0xbfc0d9a4239eb0ab	-0.131641881363412
9	0xbfd28f78f54e7540	-0.29000686603270154
10	0xbf998f4c7525cda2	-0.0249607035161269
11	0xbfbe98e7cd0e75ec	-0.11952065235387693
12	0x3fb4be39fe07c3bd	0.08102762653267255
13	0xbfce94618dc772c4	-0.2389032308846223
14	0xbfd3707590b1ffbf	-0.30373896723176225
15	0x3fbb49d7c7eeef03	0.10659550315079618
16	0x3fb030d234149a3d	0.06324495097633416
17	0xbfd672c6fbe79a25	-0.35075544929569197
18	0x3faaa6476846a180	0.05204985759638969
19	0x3f95f3b7cc0fbd56	0.021437522725986945
20	0x3f9dc452df4333dd	0.02906922805486888
21	0xbfbc9186a937e138	-0.11159555083566353
22	0xbfbd99c5280290a2	-0.11562759615714183
23	0x3fc7e774fcc3e61d	0.18675100652744528
24	0x3fcde5b6a10fbf22	0.23357279648143342
25	0xbfa85179c5dc8ec8	-0.04749661007215661
26	0x3fcb5de1acd80ebb	0.21380253734252172
27	0xbfc26a6cd65edc67	-0.14387283770858803
28	0x3f3d24402b7574b0	0.00044466559071116695
29	0x3fa3e155499413c0	0.03882853053259039
30	0xbfb19fef31c4dfb6	-0.0688466545587961
31	0x3fa8eb0c410ad362	0.048668272914631286
32	0xbfc7d312e422b5db	-0.18612896098549822
33	0x3faca7f3fb1b1776	0.05596888008362459
34	0x3f8d32ae49e921cb	0.014256822233748153
35	0x3fc12b897beecb53	0.13414114524274598
36	0x3fa4b0532a57921d	0.040407751959524264
37	0x3fd18ba7d6acf312	0.2741489025536775
38	0xbfb6e93d4a883b5a	-0.08949645108826357
39	0xbfb59c241fbe3bf4	-0.08441377425172886
40	0xbfb7ec3a1ea83ccd	-0.0934482884260774
41	0x3f5de10d6fb1e837	0.001823676225085181
42	0x3fcbfe0edd5211fc	0.21869073683423312
43	0x3fc6f37a437eb39f	0.1793053464474754
44	0xbfda5127cf3e9a6c	-0.41120333899235706
45	0x3fa7d3cf0fda8aec	0.04653784817243953
46	0x3fd9c486e00feaa2	0.40262004738876034
47	0x3fda40ddf3419414	0.41020916705594
48	0xbfccab8bd16a4c88	-0.22398517346718827
49	0x3fc1c78a1ba02726	0.13890196179300424
50	0xbfc1e25fe856b644	-0.13972090572990414
51	0xbfd71ea6fc037535	-0.3612458668774992
52	0x3fc08f02dd271081	0.12936435507265645
53	0xbfc53deb0aa27a5f	-0.1659520914008281
54	0x3fc7dfa29f69c4de	0.18651230605931962
55	0xbfab0b288af1dd0f	-0.05281950660804046
56	0x3fbfef9728c01b52	0.12474961037524437
57	0x3fc53f51cde433be	0.16599485924998975
58	0xbfcb42d4f4154886	-0.21297704618570296
59	0xbfc6f99262cae263	-0.17949132751325
60	0x3fbb4c05f8b4e69b	0.10662877389850182
61	0xbfd097f806877b28	-0.25927544248217993
62	0xbfc7edbee322f3d8	-0.18694292154933012
63	0xbfd8068590cc5ef7	-0.37539805546246846
64	0x3fd169604a13b660	0.2720566485794276
65	0x3faa8b440bd6abb6	0.051843763775955606
66	0xbfb32a13af029208	-0.07486079237657617
67	0xbfc23193bfc9892e	-0.14213797440158643
68	0xbfc257b78a7dea3c	-0.14330190908715845
69	0xbfc23551c9129eee	-0.14225218122486843
70	0x3fd5796d896ca571	0.33553636951781757
71	0xbfb1289f8b669aca	-0.06702611115779714
72	0xbfd8799624f5007a	-0.3824210511120395
73	0xbfced3ae3da5ec05	-0.24083498010790563
74	0x3fce54ecf5bcbd36	0.2369667243851638
75	0x3fd4f9bb6da35fe1	0.3277424402890557
76	0x3fbe43be892e8900	0.11822119568981648
77	0x3fcc395c58be19aa	0.2205005105317473
78	0x3fb619fdd59d691f	0.0863340994377819
79	0xbfd45be96e2a06f5	-0.31810985334605785
80	0x3fd25710230c1759	0.2865639059312933
81	0x3fcec71b936e797d	0.24045128535085417
82	0xbfcf576ee707a08a	-0.24485574990035658
83	0xbfb4100b19ed9bf8	-0.07836980231296298
84	0xbfd520cec99589e8	-0.330127426967151
85	0x3fc5ea231488ef5e	0.1712077951686934
86	0x3fd3fdb59b8bc330	0.3123601931575193
87	0xbfc46d2745f60c41	-0.15958109775610477
88	0xbfd84c03be0e371b	-0.3796395641337413
89	0xbfb204a8fcec3392	-0.07038360762471843
90	0xbfccaa6c6a59e63e	-0.22395091240814397
91	0x3fc93842fbda324f	0.19702946946599062
92	0x3fbd32be8c1c6618	0.114055546957751
93	0xbf89df650d70fe28	-0.012633122894953067
94	0x3fce425202a46804	0.23639893654836908
95	0xbfa4f6773431644e	-0.04094288360710917
96	0x3fc618c3ddde8a03	0.17263077100240318
97	0x3fc6f32e1ab0da00	0.17929626754057892
98	0xbfd0ecab76b01c8e	-0.26444517698878023
99	0xbfcbcc65c36c877f	-0.21717521707710927
100	0xbfa766771e2c1e6f	-0.045703623231074235
101	0x3fa66c3d2fa03618	0.04379454809541644
102	0x3fbdaeb37cfa9bd5	0.11594697762721691
103	0x3faa45b6ac8c25be	0.05131312233249784
104	0xbfa58d1217abb7fa	-0.042091908826350236
105	0xbfa543d1f99b9852	-0.04153305217714433
106	0x3fcadf9f3129dae8	0.20994939709245064
107	0x3fbd44d4f6cd56ed	0.11433154130403596
108	0xbfcd81cfe222c1ab	-0.23052404920373468
109	0xbfc31a251fcfd606	-0.14923538258851482
110	0x3f6e7596575a544c	0.0037181793548577754
111	0x3fc741671b5de7bf	0.18168343387861616
112	0x3fd12b47586b5c7d	0.26826652178483085
113	0xbfaafcb8ff385ad9	-0.05270937076072863
114	0x3fa95eefabc21f10	0.049552430836284356
115	0xbfba5f761b31410b	-0.1030191246402447
116	0xbfc3b4da37714ac8	-0.15395667750507003
117	0xbfcdc533fd4172ae	-0.23258066049574694
118	0xbfdaaaed25e4d837	-0.4166825170572141
119	0x3fd62b337b0d6e48	0.3463867856678218
120	0x3fcf75efb3946ccd	0.24578663128418157
121	0xbfd4511e5dab44f7	-0.3174510874496969
122	0xbfc6a06c18ec0d27	-0.17677069870851733
123	0xbfc582dc1734e730	-0.16805602200639091
124	0x3fc36d5113dd12f1	0.15177358121777432
125	0xbfb9df0434f616b1	-0.10105921071052638
126	0xbfa655fa6fe04859	-0.04362471213984582
127	0xbfc332c0c697c3ba	-0.14998635956683676
128	0xbfa166169d39ab69	-0.03398199719671064
129	0x3fc8c6acfce876df	0.1935631022360473
130	0xbf8ea24c1dd8fe61	-0.014957995091321398
131	0x3fc736646263fcf4	0.18134741596438853
132	0xbfd20ae616517ad9	-0.28191520862121205
133	0x3f9e0b385ec2f55b	0.02933967665079727
134	0xbfccae78056bfc25	-0.224074366233226
135	0x3fabaae6a5153a71	0.05403824582264328
136	0x3fb2c9af29d98888	0.07338995715829999
137	0x3fd2d9a0f64344ae	0.2945330052289802
138	0xbfb72b537e96cbbb	-0.09050485458901296
139	0xbf94f9dfd45af0ad	-0.02048444493878836
140	0x3fb14e3731e1895f	0.06759972541616353
141	0xbf6d00d0342fd559	-0.0035404268724003427
142	0xbf979c19d4769615	-0.023056415169454853
143	0x3fdbe7be99f61267	0.4360195640113375
144	0x3fcb58effe94a987	0.2136516564435846
145	0x3f9b900b7c105d14	0.026916675040493734
146	0xbfd61a2adba8089b	-0.34534713221376884
147	0xbfd9153017534250	-0.3919182040963607
148	0xbfd6da1233d82337	-0.357060003880679
149	0xbfb94d3a144ac7a3	-0.0988346385518342
150	0x3fc082d249fe8fe6	0.1289923535633754
151	0x3fc5fabb453f42ae	0.17171421891409494
152	0xbfc1eede600afda0	-0.14010219277950586
153	0x3fc95b68c0a2f0c3	0.19810208707884244
154	0x3fd92f515039d06b	0.3935130389647898
155	0xbfce3c560df53daf	-0.2362163131860888
156	0x3f941298beed9675	0.019602190640759482
157	0x3fd7167c75f1e697	0.3607474471860796
158	0x3fac2676d71e3430	0.054980958709258565
159	0xbfd2777a659c4278	-0.2885423652924497
160	0xbfba443330b892e9	-0.1026031488368734
161	0xbfd65ccfed3bd68c	-0.34941480796201385
162	0xbfc8e6f79102acb0	-0.1945485551890207
163	0xbfc11570d0455eb6	-0.13346681756478568
164	0x3fab99ea140204f4	0.0539086484359447
165	0x3fd67896cccae7e3	0.3511101722648375
166	0x3fcfc6113f5a5ed9	0.24823203652771644
167	0xbfb6e152572ad616	-0.08937563541515944
168	0x3fad8a206a405bd9	0.057694447488920005
169	0xbfd229af4a685d82	-0.2837942339551419
170	0xbfd499276a526e57	-0.32184777625091016
171	0x3fa0ca86ef945c2b	0.0327951590972407
172	0xbfa226034d0adad3	-0.03544626536807063
173	0x3fa024e3cae922b8	0.03153144695221982
174	0x3fbd9ca8487aac6f	0.11567165154944957
175	0xbfc7a18e46f2b24f	-0.18461779083499372
176	0x3fbe2a2420e67926	0.1178305225680317
177	0x3fb6fd34b48e26ce	0.08980111511314279
178	0x3fca4fb11702a840	0.20555699943116856
179	0xbfd5246187dd5843	-0.330345518760968
180	0xbfd35f2f748b37d9	-0.3026846540568591
181	0x3fd06715acae1eee	0.2562917887048418
182	0x3fb8a5b1a104f66b	0.0962782877076848
183	0xbfc8bc10a050758c	-0.19323928668829315
184	0x3f8e7756458a8aff	0.014876054761150835
185	0xbfccd39cef951e08	-0.2252079171978354
186	0x3fca1cf2f4912256	0.20400845472092283
187	0x3fcb4bb5b7201c34	0.21324798051520732
188	0xbfd01908816f6d6d	-0.2515279068008656
189	0x3fb2c5254cecd0fa	0.07332070472768129
190	0xbfaf79e017ae2e13	-0.06147671021525638
191	0xbfd0a08d27dfaff8	-0.25979927915500367
192	0xbfcbae57138e492f	-0.21625793890832187
193	0x3fce9826961e9a1d	0.23901827173286075
194	0x3fd1b66442a2b97c	0.27675730235468854
195	0x3fcd4d0dbb741fae	0.22891399052627776
196	0xbfb02c6b80c8ccb5	-0.06317779440068956
197	0x3fb3812423e19c27	0.07618928791053801
198	0x3fca0d55f0d6769e	0.20353197345405233
199	0xbfcdfe31c30c4d79	-0.23431989692526736
200	0x3fc8fee787646a08	0.19527906523656235
201	0xbfd63df4f15671ea	-0.34753154342777626
202	0x3fb00c303839635f	0.0626859795824095
203	0xbfc1c638b9438dd0	-0.13886174245918292
204	0x3fca734b9b81c8a1	0.20664353459466603
205	0xbfb560167b5aac1b	-0.08349743377282019
206	0xbfc183c2f59e5512	-0.13683354371156803
207	0x3fd9a9ab9c612b4c	0.40098085662309724
208	0x3f9a8e841a0b5b62	0.025934280480977796
209	0xbfd5a0e75dff935f	-0.33794578723455077
210	0x3fb3466d874e6b99	0.07529339364411526
211	0x3fc17d44072f78b4	0.1366353068432936
212	0xbfcd7c753d5b1bd3	-0.2303606557454417
213	0x3f9e2b32be5d102d	0.02946166312109726
214	0x3fd4ce032c581b92	0.3250739987419645
215	0x3f9a4a6b360a5bcd	0.025674510167472953
216	0xbfb2e1de527100a7	-0.07375897896509064
217	0xbfc36ae42a732990	-0.15169956276652075
218	0x3fd7b5e637846daf	0.37047725125895686
219	0xbfc8923345a9b24f	-0.19196167851932208
220	0x3f75ec7d6ce2641a	0.005352487509434867
221	0x3fd16e74d04b850a	0.2723667177325103
222	0xbfc3ccead3370f8c	-0.1546910792659414
223	0xbfd3c6df252a8536	-0.30901316289426306
224	0xbfb2b18eeac50370	-0.07302182418517389
225	0xbfd13961d8bb56f4	-0.2691273323556367
226	0x3fc866e56b68dfcb	0.1906401419125799
227	0x3fb023590704df7a	0.06303936406481894
228	0xbfd05ef5decbd543	-0.2557959247345318
229	0xbfc170aa2c2a25d8	-0.13625075489498673
230	0xbf948707095e22f3	-0.020046338984260847
231	0xbfbe0c30d5433932	-0.11737351614576566
232	0xbfcf6b76e115e0fd	-0.24546705236912905
233	0x3fa9759035ab0a61	0.04972506194237237
234	0x3fc2a1b6e268af32	0.1455601315986939
235	0xbfbdfbf54ec62e4f	-0.11712582753369215
236	0xbfc22e986a3f660c	-0.1420469778811796
237	0xbfa2f4926d25ff3d	-0.03702218611124273
238	0xbfaab234d666a381	-0.0521408569068802
239	0x3fa493c2a9c483b3	0.04018982241019078
240	0x3fcfc4ad51007b5e	0.24818960623903313
241	0xbf827e8c06062693	-0.009030431684340178
242	0x3fc8c6f8b0e6e689	0.19357212674895077
243	0x3fb91a20ba1c652d	0.09805492919658283
244	0xbfac6eba4000ffcd	-0.0555322840814366
245	0xbfa2df12c75d8d4f	-0.03685816463146329
246	0xbfa3d9e06a4ac538	-0.03877164170752184
247	0xbfc0c771e489fd4f	-0.13108657511836916
248	0xbfd938abc0d71a9e	-0.3940839179235044
249	0x3fd2b38965c63798	0.2922080510987768
250	0x3fc08735ae23beb3	0.1291262722293048
251	0xbfd059119203c704	-0.25543631800893274
252	0xbfd4f74ee689ceba	-0.32759449494845294
253	0xbfc93a9718f31f04	-0.19710053175207787
254	0x3fa58f5178e4d486	0.042109056479980686
255	0x3fd0ed6af24c9a34	0.26449083005937557

lstm1.bias_ih_l0 f8 [40]
0	0xbfb2920533fe0049	-0.07254059333172437
1	0xbfc0a9490ebb434b	-0.1301661798411494
2	0x3fb07431292a38c7	0.06427294974330088
3	0x3fd886c611ae21ef	0.3832259342821364
4	0x3fd2233c6b4d645b	0.2834006355165621
5	0xbfd0c77b87789643	-0.26217544774621987
6	0x3fc624f2c72b48ef	0.17300257420590223
7	0x3fb5337e547a9fcb	0.08281697809672932
8	0x3f75c6b826219876	0.005316466647945819
9	0x3f9edeb96c11a698	0.030146500798230308
10	0xbfc92b3cbb04fafb	-0.19663199550446805
11	0xbf8b1874fff08998	-0.013230241833359455
12	0x3fd411a8efa8f6ba	0.31357787517832103
13	0x3fc7b587f249eb85	0.18522738771920558
14	0xbf839e7b09adbb6d	-0.009579621537083327
15	0x3fbd9c3e30750916	0.11566532786404013
16	0x3fc2b6bfdab2cfa5	0.14620207003247035
17	0x3fb1204393295bad	0.06689855902491955
18	0x3fbf07cb6ea15f39	0.12121268702446465
19	0x3f971dd136a36eec	0.022574681243766756
20	0xbfcb953f55d872bf	-0.21549216930079315
21	0xbfc91972d13d3a3e	-0.19608912674671503
22	0xbfcf44714061577f	-0.2442761959416053
23	0xbfcfe26628e5f1e6	-0.24909665104850304
24	0x3fc14aff535e9257	0.1351012379719971
25	0x3fb7f22716a057d2	0.09353870680237655
26	0x3fd3893c36c7ffaf	0.3052511725400064
27	0x3f9249328982588b	0.017857350962537082
28	0x3fc40a3376c1d504	0.15656131075562751
29	0xbf6868eb8523e01d	-0.0029797172547851984
30	0x3fac5309bb25f7a6	0.055321029753925985
31	0x3fd14bbebdd61bc7	0.2702481130476681
32	0x3fd5e02cf87fa7ca	0.3418075968498867
33	0xbfbba39096a82299	-0.10796455076354973
34	0x3f9af87f91e0d5f0	0.02633857086057917
35	0xbfa60345041cfd0e	-0.04299369502268223
36	0xbfae4bdc9b8dc509	-0.05917252920961331
37	0xbfcf61746c6e6594	-0.2451615838479425
38	0x3fd204cabd212a54	0.28154247731859994
39	0xbfc5b1024fe3bd07	-0.1694643869481995

lstm1.bias_hh_l0 f8 [40]
0	0x3fc9b2261600ffe2	0.2007491691056194
1	0xbfc26bb64ebb436b	-0.1439121136122837
2	0xbfb9cd8707d5c709	-0.10079235020910117
3	0xbfbeb484b9477893	-0.11994199298303192
4	0x3f942e2a34d645d6	0.019707354998507252
5	0xbfc83a6a4ef12cc0	-0.1892826924762172
6	0x3fc6a97ac72b48ed	0.17704710698178108
7	0x3fa6062c18f53fb6	0.04301584057486656
8	0x3fd38a04d098866c	0.30529899950679495
9	0x3f603777608d3171	0.0019795734009788114
10	0x3fd24334527d830e	0.28535183005992415
11	0x3f96f1590007baa8	0.022405043246119277
12	0xbfb4ba8fc15c263f	-0.0809717032499515
13	0x3fbd12ba0493d715	0.11356699573283564
14	0xbfbb88d5a135b74d	-0.10755667863642522
15	0x3fcca902883a8455	0.22390777255808084
16	0x3fb8b1dc35659f39	0.09646393111836184
17	0x3fc03e0df994adeb	0.1268937557846209
18	0x3fa94fd8dd42be45	0.04943731022774193
19	0xbfc4cd90892b9218	-0.16252333352817128
20	0x3fd531427513c681	0.33113156731915444
21	0xbfb9021a987a74fa	-0.09768835280052093
22	0xbfc48aa1806157c6	-0.1604806782585781
23	0xbfca46a788e5f13b	-0.20528120216830267
24	0xbfd4c434c650b6ea	-0.3244754730866207
25	0x3fb0dd9136a057d7	0.06588084777499091
26	0x3fd2a5b676c7ffa5	0.291364303586301
27	0x3fc483ca15304b26	0.16027189287759674
28	0x3fbc96e2d183aa63	0.1116773377904479
29	0xbfc2d1e416148f28	-0.14703036382808787
30	0xbfb5c21b826d047c	-0.08499309477066846
31	0x3fd59a47ddd61bbf	0.33754154838282696
32	0x3f9cd9d247fa7ab1	0.02817467274018765
33	0xbfd0df8ef5aa08fb	-0.2636449240745972
34	0xbfca51a415c3e511	-0.2056164842868289
35	0xbfd0fc9114839f83	-0.26541544917426324
36	0xbface3056c0dc515	-0.05641953414932225
37	0x3fb1527def233408	0.06766497696226292
38	0xbfbebca6cb7b573d	-0.12006609409158116
39	0x3fce192bd01c42ba	0.23514316236152927

batch_norm1.weight f8 [10]
0	0x3ff0ef86242416b7	1.0584775363690093
1	0x3fef8b1ee33fc98d	0.9857325018368087
2	0x3fecbc337921178b	0.8979737630659071
3	0x3feaf97945400e45	0.8429533340972247
4	0x3ff00b525b89387b	1.0027640891671854
5	0x3ff01005a4e4d29f	1.003911632649
6	0x3feebf3aa7216066	0.9608433975472621
7	0x3ff135b3c873012e	1.0756109075592337
8	0x3fee216cc234fffc	0.9415801804643702
9	0x3fefb45d43da6323	0.9907671284919143

batch_norm1.bias f8 [10]
0	0xbfbcfd29b03bacf5	-0.11323795845571623
1	0xbfc0696e3cbb0fea	-0.12821748700491692
2	0xbf77219498b7480f	-0.005647259192715039
3	0x3fb4d3bff7646f06	0.08135604657985249
4	0xbfa9c46f1cc50567	-0.05032679773513387
5	0x3f71b0f86daeb4e3	0.004319162772771198
6	0xbfc5e13780526f54	-0.17093557134364323
7	0x3facb4a155372592	0.05606559910990962
8	0x3fab824f2114a783	0.053728554523629256
9	0xbf99db31dd552b92	-0.025250224241328896

batch_norm1.running_mean f8 [10]
0	0x3fb3c42da4b06b7f	0.07721219320994342
1	0xbfc07d84c0fa4de7	-0.12883052275411375
2	0xbfc313bf3ca64bed	-0.14904013120084816
3	0xbfc0b6cb737a6610	-0.13057845247821875
4	0xbfb2905bfc75ef5a	-0.07251524842825799
5	0x3fba8b01bcc304e4	0.10368357523386212
6	0x3fcbe787984ef9dc	0.21800322472513656
7	0x3fb9e17d1749f983	0.10109693354204378
8	0x3fc10189435469c8	0.13285938060364644
9	0xbfb9c80d3d9af022	-0.10070879701646665

batch_norm1.running_var f8 [10]
0	0x3f76b2b994f1a95c	0.005541539124445851
1	0x3f8e159b6b528937	0.014689649784774701
2	0x3f848ea4cab0c31f	0.010037696300146557
3	0x3f8d68c19f6aa32d	0.014359963109500018
4	0x3f915482af4c6d5d	0.016923944424985893
5	0x3f840a72c3eb0878	0.009785553554483281
6	0x3f885973921f77dd	0.011889365097825727
7	0x3f77b2284eef2bd2	0.005785138563576946
8	0x3f90d8c6a3ba6e7a	0.016451934569529737
9	0x3f9930556687eae7	0.02459844053553697

lstm2.weight_ih_l0 f8 [40, 10]
0	0x3fba78e4bf1e0138	0.1034071890444509
1	0xbfc51569b4ef853b	-0.16471597037074467
2	0xbfc928c1e722bbda	-0.19655631814882107
3	0xbfd1c99822b75929	-0.27792933836225814
4	0xbfc0fb8cee92c3d2	-0.13267671250426233
5	0x3fc898e011f8c322	0.19216538312459713
6	0xbfc7285463cd9c6e	-0.18091826317979404
7	0x3fbcfaab2fb5ab57	0.1131999007681491
8	0x3fa32f6180fd853c	0.0374708623846893
9	0x3fc4222dde243af1	0.157293065516988
10	0x3fb71cdba2696a2c	0.09028408732539422
11	0x3f8568810ecc0ef9	0.010453232063361894
12	0xbf9c53acf8fadbcf	-0.02766294736531077
13	0x3fcc1c5ab80dc711	0.21961530673029775
14	0xbfb926f2ab04c919	-0.09825054812680313
15	0xbfb625cd5a84b347	-0.0865143152229396
16	0xbf8992a1180f0d0b	-0.012486704394069756
17	0x3fd2b5708faca81c	0.2923241999693589
18	0x3fd048e0e1d54450	0.2544481473351583
19	0xbf7320cba55d60a2	-0.004669948093429495
20	0xbfd2e70e83751ce3	-0.2953525813831687
21	0xbfc7c6b20b02d312	-0.18575120484970192
22	0xbfbb55c850f22627	-0.10677768684595233
23	0xbfd1c27198b58649	-0.2774929038333523
24	0xbfc0878f68d2440b	-0.1291369687865259
25	0x3f89f353898703c2	0.012671139368537147
26	0x3fcc50b80c70beb4	0.22121334655229463
27	0xbfcc6f9a80c04280	-0.22215586935682907
28	0xbfcf7e1ab1d811b0	-0.24603589710035356
29	0x3f90f142021a20fe	0.01654532564001076
30	0xbf848d8e37772da7	-0.010035620753931008
31	0xbfb35e1f17f6dc2f	-0.07565492949548579
32	0xbfc5df6ac7595377	-0.17088064893564667
33	0xbf83d2c60bc06f2c	-0.009679362519868194
34	0xbfc19508d802937f	-0.13736067340246547
35	0xbfc868beb1b8b4b7	-0.1906965606480406
36	0xbfc01345ed911bcc	-0.12558817005103007
37	0xbf8d4c714936b6a8	-0.01430595879250103
38	0x3fb5d939f5f01570	0.08534586195317728
39	0xbfcc319763c9424f	-0.22026340839740263
40	0x3fc6f0cfe99bfa84	0.17922400385574033
41	0x3fc7535395b3b675	0.18223042306583506
42	0x3fcc4855eb9e3b5e	0.2209575081328365
43	0x3fd2d6b8c61b9960	0.2943555769583295
44	0xbfda1dc01aa3e966	-0.4080658207091318
45	0xbf84ca033a50b455	-0.010150933472767113
46	0xbf50babfcf192f47	-0.001021086991744151
47	0xbf7464fba2741574	-0.004979117343514406
48	0xbfc01cd3d3935883	-0.1258797438701472
49	0xbfa48c1eec1e7e63	-0.04013153679192951
50	0x3fc77bdac2c743cd	0.18346724043524745
51	0x3fd225e6365c785b	0.2835631876822668
52	0xbfb829ad7a6aa823	-0.09438595045745095
53	0x3fc1c95e17e4f15a	0.13895775000299687
54	0x3fbe2f7c2730f60b	0.11791206318681462
55	0xbfc9d8eec923c4d0	-0.2019327623488949
56	0x3fd4177c1f80afb5	0.31393340183671664
57	0x3fcfcddc38fd9791	0.24846985609763952
58	0x3f82c01e7f12c31f	0.00915550065323739
59	0xbfcb486766637bbf	-0.21314709186023426
60	0x3faec047d7ae9038	0.06006073482356594
61	0xbfb500f43b9b9c1c	-0.08204580741185946
62	0x3fcb1642ff3f1f70	0.21161687339030832
63	0xbf941a9d30af57d1	-0.019632774445049798
64	0x3fd1d2c1604d9712	0.27848848728750497
65	0x3f7c26aee2961a90	0.006872828621800622
66	0xbfbbf0c67b6c4bfa	-0.10914268983133005
67	0x3fd0a755e0090adf	0.26021334532212664
68	0x3f97b70a8efc46bc	0.023159184434070154
69	0xbfc53f88184aff82	-0.1660013311975455
70	0x3f91d075a0fe4424	0.01739677233814886
71	0x3fa75513e69d5338	0.0455709666263488
72	0xbfd2a729e50780e1	-0.2914528595556601
73	0x3fc043be6723bb4e	0.12706737552749775
74	0xbfb58d00849e3c2b	-0.08418277013537138
75	0xbfd04dd8e1c10a68	-0.254751415694193
76	0xbfa9fd5468cdc37d	-0.05076087741225075
77	0xbfbeb44743de2c74	-0.11993832976274793
78	0x3fa7076aa39274cd	0.0449784588501899
79	0xbfc15ff777bf2da0	-0.1357411703778384
80	0x3fc7a1f3b0881975	0.18462988013943585
81	0xbfcc91a877f924be	-0.22319513185565215
82	0x3fa84a9bdb903963	0.04744422011582363
83	0x3fc90fd8e92fab9a	0.19579612146420972
84	0x3fc6aa677403afa7	0.1770753208614881
85	0x3fa8e2c613a6e3b3	0.048605146311678914
86	0xbfc0bbaf7159e668	-0.13072770151829904
87	0x3fa8a50b5a1c6eb3	0.048134188413511046
88	0xbfcad5a2d7b1e721	-0.2096446564863124
89	0xbfc69ae78ca519e9	-0.1766023098700338
90	0x3fddfb35b17ba23e	0.4684576256973151
91	0x3faf9e2e7368763c	0.061753703678033095
92	0xbf9924b297a1a40e	-0.024554052834364674
93	0xbfc013dd9df13007	-0.12560625278490553
94	0x3fd3a504686041e6	0.3069468516632966
95	0xbfcaddea12767323	-0.2098972883367419
96	0x3fc256d7a4d7614a	0.14327521847622854
97	0xbfb78614c0a4e9a4	-0.09188966468074128
98	0x3fa0f5faea78ec93	0.033126679536928404
99	0xbfd4050f737d36f2	-0.3128088596175608
100	0xbfc8d7335e0593f1	-0.19406740275294923
101	0x3fb2e951fd0eee08	0.07387268474752073
102	0xbfd63021788f8889	-0.34668766759399056
103	0xbfd8b1bfa388948b	-0.3858489129073141
104	0x3fbffcb7c3356b9b	0.12494991794430492
105	0x3fb9746de5bb0026	0.09943281992582395
106	0xbfb0ec94f25a31f6	-0.06610995213322454
107	0xbfd83f1a23eb0d3f	-0.37885144717821
108	0xbfaddc94fa67d8e2	-0.058323531691643074
109	0x3fc35d1ffd40b2bd	0.1512794481835921
110	0xbfd1788b8596de42	-0.27298248334725284
111	0x3f94f4e5683cdac9	0.020465454566159367
112	0xbfced001ad53e0aa	-0.2407228561712647
113	0x3fc550603bca9b82	0.16651537818435364
114	0x3fd00399135d938a	0.25021960154691014
115	0xbfc4bdb470bcf57d	-0.16203933243552263
116	0x3fc9512c332cd4e3	0.19778969286713907
117	0xbfcaf73756a9d907	-0.21066943866362228
118	0xbfbae218a3233cd9	-0.10501245482304301
119	0x3fafab81aad44617	0.061855365851567416
120	0xbfc0d43e75f4e0c4	-0.13147717246625323
121	0x3fca36e08fbc2192	0.204799719031382
122	0x3fd8100c6ad408db	0.3759795230145195
123	0xbfbe223320a40d94	-0.11770934626479451
124	0x3fcb7bf2d3028ab9	0.21472010901660157
125	0xbfa738c14f4e3ada	-0.045354882174356084
126	0xbfd4112726362e4d	-0.3135469315682016
127	0xbfd1bd82bfb62db3	-0.2771918174919065
128	0x3f635637528cc874	0.002360446979218495
129	0x3fae6a924e46f373	0.05940682607204097
130	0xbfc660c9c018354b	-0.17482873801820129
131	0x3fd829253e2ba7e6	0.37751132079449545
132	0xbfcad1d61d009cfe	-0.2095286981213817
133	0xbfc29e22fd4c3997	-0.1454509484105528
134	0x3fbf17af82a48359	0.12145516337888064
135	0x3fafb1256e2f26cd	0.061898393345087045
136	0x3fa57364f5e3e8ab	0.04189601422872732
137	0xbfc176f2aa05678b	-0.1364425020390708
138	0xbfd76a20ba8d0ed2	-0.36585252969619575
139	0x3fd78778a7920a03	0.36764351238539933
140	0x3fbfbd5bd8020a5e	0.12398313544876191
141	0x3fd24e8fc8dc02aa	0.28604502310921964
142	0x3fdae0345f0419e7	0.4199343612566779
143	0x3fd058a0e1dd6682	0.2554094510756856
144	0xbfa596a8d0b30b27	-0.04216506526565516
145	0x3fb0292c5bf2f773	0.06312825436449802
146	0x3fb992f05093c3f4	0.09989835707871447
147	0x3fc8ab715892c50a	0.19273201775426002
148	0xbfc56fa2396e68a6	-0.167469289820308
149	0x3fc1ccc53646c5da	0.1390615954419861
150	0x3fcbe3ea9d91be4e	0.21789295858205765
151	0x3f82795b53c337d6	0.00902053212521629
152	0x3fd32351e3666002	0.29903075415631986
153	0xbfc5663a894fd7ec	-0.1671822710483747
154	0xbf33d4e653c54e46	-0.0003026068041169543
155	0xbfd26ce93cb9cd21	-0.2878974049592263
156	0x3fd15c728dae53c3	0.27126754604369924
157	0x3f78fa0cbe9157a3	0.006097841055710792
158	0xbf83c44cb495e8cb	-0.009651755581888818
159	0x3fb2ae16b2b4afae	0.07296888220724781
160	0x3fbcba829e42eec0	0.11222092021756236
161	0xbfcd52a30c48ff3b	-0.22908437824116298
162	0x3fae7bac93fc4f81	0.0595373087545843
163	0xbf84cff33b19d51d	-0.01016225837814005
164	0x3fcc6050ec380360	0.22168933424111525
165	0x3faa7d306ab3adae	0.051736367249613266
166	0xbfcac6670d898c17	-0.2091797653293674
167	0x3fcd298cef92dbe8	0.22783052156384476
168	0x3fa907f586338cf7	0.04888884795379938
169	0x3fd30a223cef7d0e	0.297493514544798
170	0xbf9294a812402dd5	-0.018145204652723585
171	0x3fa4ceeee311f1ed	0.04064127466060428
172	0xbfb50298c5cbbd3a	-0.08207087353706735
173	0x3faf605f1ddd25e8	0.061282131572237664
174	0x3fbb9b7be5ceec07	0.10784124718240672
175	0xbfc8cbe6c75f06c1	-0.19372257933541984
176	0xbfc85dab1ec9f0cd	-0.19035853389130467
177	0x3fd1ff919ef99a8c	0.2812236835947395
178	0xbfc77de518d7b27b	-0.18352950776115393
179	0xbfa167d2fb5226fd	-0.033995240382024484
180	0xbfdb2d90383ce444	-0.4246559666822274
181	0xbfba737456f159a4	-0.10332419512392349
182	0x3f796c77e3f8fad7	0.006206959078155014
183	0xbfd606b1d93913cf	-0.34415861333064596
184	0x3fbe52a082c74515	0.11844828789550761
185	0xbf9669689360cef8	-0.021886476512192637
186	0x3fa30c115fd06673	0.0372014455280806
187	0xbfda3c2b9809ad8f	-0.40992250297014093
188	0xbfd1a68611c69988	-0.275788800582085
189	0xbfcef9e9e0403a0e	-0.24200175714254651
190	0x3fc61f967d148106	0.17283898456026509
191	0xbfc2a786bab12bf7	-0.14573749652694776
192	0x3fb802865d06cab7	0.09378852625995192
193	0xbfc0e6320fdeb4b1	-0.13202501082324639
194	0x3f737c3caf614042	0.004757153559765527
195	0xbfd16a16eb30fdd7	-0.27210019081027553
196	0xbfbbd1476c3edf76	-0.10866209404673363
197	0xbf6040732b23e944	-0.0019838570962039965
198	0xbfca6be5743ca5cb	-0.20641773391370885
199	0x3fcc4260a848e6fe	0.22077568261175168
200	0x3fcf9049db82df6c	0.24659083574601526
201	0xbfbc018c8a2956c0	-0.10939863560755736
202	0xbfd895ab6ac75151	-0.38413510730358263
203	0x3fd799af3c8f57fc	0.36875515855842855
204	0x3fcca2c1e865c0ac	0.2237169632676389
205	0xbfc0afa4df8d31cb	-0.1303602305946597
206	0x3fd999223885c06c	0.3999715377785893
207	0xbfb112f4cfbb0b1f	-0.06669550010250845
208	0x3fd141c9b550c8d9	0.26964037615392794
209	0x3fc064c8fd6dfd68	0.12807571768278625
210	0x3fc45b314881335f	0.15903297462719032
211	0x3fd16ad710fd70c2	0.27214600238017905
212	0xbfb87f5ecc71ec36	-0.09569351664860978
213	0xbfc2c285f4be233f	-0.14656137895897278
214	0xbfcc53ac217c1884	-0.2213034785747291
215	0x3fd07627948e3365	0.25721158511514935
216	0x3fa15cc101228002	0.033910781277199945
217	0xbf910bbbda8e6be0	-0.016646323408718078
218	0xbf81efcba1669ef3	-0.008758154738486712
219	0x3fb79cd965d9edcd	0.09223707901576646
220	0xbfab6b310c762bf3	-0.053552181979362866
221	0x3fb0df43b9ec6b60	0.06590674676082875
222	0x3fbcd769ea623ad2	0.11266195270784898
223	0x3fb9cd167a2622aa	0.10078564150002003
224	0xbfa0b766d95888d3	-0.03264924433848795
225	0x3fb2b7c64ad3b5cb	0.0731166775401199
226	0x3fd4d343f0217cf4	0.3253946156527967
227	0xbfcb94c73a8d6af7	-0.2154778514767128
228	0x3fb519d1ec98b31f	0.08242523218423202
229	0xbfba618e20a25c02	-0.10305107399686622
230	0xbfb0782a792a9fee	-0.06433358629385541
231	0x3fc5aa56046e8d1d	0.16926074234388802
232	0xbfb1a2f7186e9103	-0.06889290186387957
233	0x3fac907ac6c6e9cc	0.0557897918365203
234	0xbfd128dfa1849822	-0.2681197240184493
235	0x3fa05a3469c1756b	0.03193820754016027
236	0xbfc4f002b96efee4	-0.1635745435178172
237	0xbfd4dfb92acaa329	-0.3261549871336223
238	0x3fc19899d7eef806	0.13746951144815983
239	0xbfb21299fec99e8d	-0.07059633703613084
240	0xbfa4d950b06e58e4	-0.04072048333834902
241	0x3fc089ef62ced1a7	0.12920944523433528
242	0xbfb82067b0f9fe2f	-0.09424446173397237
243	0x3faae95a427aced0	0.05256158887405393
244	0x3fadfb963f30582c	0.05856008073185168
245	0xbfb9696a90929bf4	-0.09926477460486166
246	0xbfc4fce0f0a33b2e	-0.1639672446239841
247	0x3fd86bf00741ad62	0.38158798893592494
248	0x3fd23909c311af22	0.2847313313456984
249	0x3fcc1d3401a62828	0.2196412094165805
250	0xbfca882070237edd	-0.20727925754089585
251	0xbfb0380b32a0d46c	-0.06335515962639854
252	0x3fd28848fe10411b	0.28956818400276213
253	0x3fca8e7d875aee89	0.20747346028462157
254	0xbfc57518a0648a3e	-0.1676359923522614
255	0xbfa4d13e721b1799	-0.04065890448468607

lstm2.weight_hh_l0 f8 [40, 10]
0	0xbfb1ec9c95ae7691	-0.07001665739377418
1	0xbfdd055610b237d3	-0.45345069532856747
2	0xbfcde37532557664	-0.23350396115977212
3	0x3fd20109417ad8ac	0.28131324190634177
4	0x3fddcb3601fde9af	0.46552801317707354
5	0xbfc11681008c5240	-0.133499264972345
6	0x3fc368a5c5cbecb8	0.15163108976398632
7	0x3fddfec103d51930	0.46867394804248175
8	0xbfc01922ac777a44	-0.12576707288003963
9	0xbf9950c3f1103bf9	-0.024722158039420326
10	0xbfd928563a1ca2bc	-0.39308696436868806
11	0x3fd9d9bf745dd416	0.403915275229623
12	0xbfda05893c0d1563	-0.40658789505353904
13	0x3fd3cfdb3fd55ca2	0.3095615504621013
14	0x3f8702d4b6fe93b1	0.011235868296191361
15	0x3fc3b787416702c3	0.15403834050632356
16	0x3fd83e9538c999fe	0.3788197569432724
17	0xbfb525c863ee97a4	-0.08260776939149977
18	0x3fa8200e9b0a6536	0.04711957590661557
19	0xbfdb87e045f7b63c	-0.43016821701789687
20	0xbfc68d9da035df13	-0.17619676897788192
21	0x3f7e95177fd0d901	0.0074664037647862455
22	0x3fd5949d054b9eda	0.33719563977363765
23	0xbfc66fd1c5f747b3	-0.17528745809846455
24	0xbfcde1f50ab7762d	-0.23345816634439256
25	0xbf7c6b38ce6c25b2	-0.006938192271954179
26	0x3f7e103de1bb12a5	0.007339708066585492
27	0x3fd230c3c7688b39	0.2842263648364454
28	0x3fd57b43fbdd1133	0.33564853282975377
29	0xbfb48c0d23d0b4a6	-0.0802620136680213
30	0x3fc24167f85acf85	0.14262103678413154
31	0xbfc2209d91b0dbc8	-0.1416203462010499
32	0x3fd10adf45477fef	0.26628858342701184
33	0xbfc9e4a163bb31e4	-0.20228974694909063
34	0xbfc5c5b705a1c6bf	-0.1700962808131887
35	0xbfcd75375a74bbeb	-0.23013965527340416
36	0x3fd66d30c4d4b592	0.3504144594361033
37	0x3f8aae1ea519b4d8	0.01302741948458179
38	0xbfcec44ae2430545	-0.24036537216128742
39	0xbfc79572d65ae88f	-0.18424830881651075
40	0xbfc338e8c8021576	-0.1501742340662237
41	0x3fcb02aaef4d33d9	0.21101891216895188
42	0x3fc949d3a1064707	0.1975655113461061
43	0x3fc053b816a2dca6	0.12755490403444475
44	0x3fb500799aad488e	0.0820384981755373
45	0xbfd5f6bfcfbdced2	-0.34318537986039843
46	0x3fc6c0b888a22435	0.17775637313414597
47	0x3fbde20dba1e8de8	0.11673055452279579
48	0x3fdb20ec69eaa956	0.42388449042723175
49	0x3fa7bd7436b8019d	0.04636729400590698
50	0x3fc733632ce819f1	0.18125571911532704
51	0x3fc72244efcfd1ec	0.1807333155590095
52	0xbfbb53477850988e	-0.10673948943494535
53	0x3f9e80d742e3b160	0.029788363893133663
54	0x3fbc8838aae646d2	0.11145357296325223
55	0x3fc6098f879cc604	0.17216676828097388
56	0x3fc5b7d864d7ff44	0.1696730129624432
57	0xbfaac2290f62f558	-0.05226257622551128
58	0xbfd356df43d16f2a	-0.30217725394116945
59	0xbfd69dd970421c64	-0.35338436091155345
60	0xbfc421092363f72a	-0.15725816944171217
61	0xbfc53d9d92cb8d36	-0.16594285648089063
62	0x3fbfbd95f2ce41ee	0.12398659875748994
63	0xbfb82a9717f1ee91	-0.09439987501712667
64	0x3fc5aeee6f007c43	0.1694009820939489
65	0x3fc9585c6927b153	0.1980090630962744
66	0xbfce2846fe55e2e3	-0.23560416620946176
67	0x3fd7c902d812b53c	0.37164374447714343
68	0x3fd232636ddddc7e	0.2843254635731184
69	0xbfae050c063cd2f9	-0.05863225532667644
70	0xbfe065af5435bda1	-0.5124127049183934
71	0xbf8af838f4ea586d	-0.013168759321427548
72	0xbfcc004168d6651f	-0.21875779742257692
73	0x3fb52c27a9beaca1	0.08270500082169231
74	0xbfb4c86b583ee658	-0.08118315605579463
75	0x3fc6eae2c72e583c	0.1790431473315851
76	0x3f9dddc72c4fb261	0.029166328506038734
77	0xbfdd86b639e3057c	-0.46134715703018236
78	0xbf89a8420beff7d9	-0.012527957906055253
79	0xbfd0f0c25f9d3c32	-0.2646947797520084
80	0x3fc7c41d24193752	0.18567241919157113
81	0x3fc044ffc886cc30	0.12710568705878833
82	0xbfcb2551eb437550	-0.21207641589618698
83	0x3fd19a60a7d78277	0.27504745856098317
84	0x3fbed3d2b8ad3371	0.1204196644659541
85	0xbfcb10fcc6e49abd	-0.21145591460773075
86	0x3fcd47df724c0b8a	0.22875588494215676
87	0xbfc1338156daab9b	-0.13438431492735678
88	0xbfd0a0672afc55d3	-0.2597902221471859
89	0x3faf6c47c87eb904	0.06137298891495571
90	0x3fd66cfb3c2113cd	0.35040169593804366
91	0x3fd4d3a0c5b3f1e3	0.3254167490665891
92	0x3fcfafc26ef7ffc5	0.2475512544478972
93	0xbfbcb34a9bbf6949	-0.11211077024873818
94	0xbfd197c36eed55a2	-0.2748879035255759
95	0x3fb28c65ff3c8e58	0.07245480996476183
96	0x3fd0b46c5c7392d5	0.261012163433674
97	0x3f88007841eab0ee	0.011719645988101903
98	0x3fceebb2d18bbbfc	0.24156794769029932
99	0xbfda92d03283d074	-0.4152107709226194
100	0xbfc7435b25cb39ba	-0.18174304337885677
101	0x3faaf5e8153c6e64	0.05265736827115289
102	0x3fce020c4d37c7f2	0.23443750162510885
103	0xbfd725524543a8d6	-0.36165291561213786
104	0xbfdb6a143adbf971	-0.4283495497510535
105	0xbfd59cbef1e7bca3	-0.3376920091968236
106	0xbfb30cead3698fc9	-0.07441585217890102
107	0xbfd9b0bf0d3a52f7	-0.40141273776798364
108	0xbfd575618df445f6	-0.3352893720885669
109	0xbfc158d9ec724b26	-0.13552402539479508
110	0x3fc6b8eedd8ea684	0.17751870935653724
111	0x3fd5a0b096181f08	0.33793272645606054
112	0x3fb0e48df7167524	0.06598746569075736
113	0xbfd60088de2a7428	-0.34378263183481517
114	0xbf8944c22b7b39a1	-0.012338177635140836
115	0x3fcc5fc22c77e3eb	0.2216723172312237
116	0x3fa75874a465bad9	0.04559673792652114
117	0xbfc218e040eba570	-0.14138415498681978
118	0x3fa72ff30e7d6444	0.04528770019414499
119	0xbfcee013df8ee286	-0.24121330657887458
120	0x3fcb7694ef974929	0.21455632876183842
121	0x3fbcebf8f1f418b2	0.11297565371578136
122	0x3fade27570eac4d6	0.058368368181058436
123	0x3fd52f50117bb550	0.3310127421126099
124	0xbf8466f811e815d4	-0.00996202282568507
125	0x3fc33916c04316e2	0.15017971408649716
126	0x3fbb0632c3f51276	0.10556332859148107
127	0x3fd2ebf8ffb63797	0.29565262767652584
128	0xbfc808b5569c46b7	-0.1877657578375442
129	0x3fc6cfbf0c329f19	0.17821491332619457
130	0xbfd5c62c58973cb3	-0.3402205338615644
131	0xbfb23e6b540d68fa	-0.07126494218883642
132	0xbfae3067b94c6b53	-0.058963052148291915
133	0x3fc0f3db669bc70c	0.1324419260995956
134	0xbfc90986a8829738	-0.19560321071656417
135	0xbfc41f3a2ed3d5bc	-0.1572029808664136
136	0xbfd88e9d5ff9ccc7	-0.3837045132888303
137	0x3fb3cf024daa278e	0.07737745662794124
138	0x3fc9d94bb63a02c9	0.20194384000571677
139	0x3fc8507dfab206e2	0.1899564241503447
140	0x3fc95cb4dc445d8a	0.19814167742945826
141	0x3fc360d11d719961	0.15139211595232907
142	0x3f6460d8466cea88	0.0024875854609523497
143	0x3fc6f6fc825d5f67	0.17941242566552804
144	0xbfd0c2f67aff8eaa	-0.26189958583402506
145	0xbfa1de8d2bf3a72c	-0.03490105783005357
146	0xbfa4e261364e1b7c	-0.0407896403112806
147	0xbfce92af58005ce4	-0.2388514690107747
148	0x3fb01b10c9f30bde	0.06291298799901265
149	0xbfdd6969cb6ec486	-0.45955891481850875
150	0x3fccc9253383f66c	0.22488846793560258
151	0x3fa9b62ffd4d0f96	0.050218105001959376
152	0x3fd05d27dbd7f84a	0.25568577260117265
153	0x3fb6ba30de2a0e9c	0.08877854751522779
154	0x3fc1b8b197f6085f	0.13844890518163575
155	0x3fce9a4fd4093aa9	0.23908422330210513
156	0x3f85cee4bb7794b8	0.010648524256746547
157	0x3fd4da3519945e2b	0.3258183240700158
158	0x3fc46a31c550185c	0.15949079641740382
159	0xbfcfd852c3a7b693	-0.2487891631457627
160	0x3fa7ae9f7088851e	0.04625414131829529
161	0x3fd3367b1fbdb55f	0.30020025348388474
162	0x3f8a677e4388ba38	0.012892710147835648
163	0xbfc8fe25d2c9d886	-0.19525597374348908
164	0xbfb2da1556c21701	-0.07364018791312434
165	0xbfbfb0ad2c07e185	-0.12378961873026213
166	0xbfd5895f9b7f7d9f	-0.3365096109900722
167	0xbfccdefa9660d9eb	-0.22555477469150217
168	0x3fc4402ff5141e47	0.1582088419602192
169	0xbfd1f54c0565a335	-0.28059673811962976
170	0x3fbe812f480d9719	0.11915870198353352
171	0x3fd2ac31ef44c69d	0.29175995222167633
172	0x3fc85b6851d46edb	0.19028953548046598
173	0x3f6125911520bcbf	0.0020931085246257137
174	0xbfb6fbe307f83718	-0.08978098816461644
175	0xbfc5f761ac35ded3	-0.17161198528969254
176	0xbfc826895e6e3be3	-0.18867604361409382
177	0xbfe116efbe439477	-0.5340498653500977
178	0xbfccf18e64267e1f	-0.22612171068338768
179	0xbfbbe0522df6bf45	-0.10889161703266577
180	0xbfcd42541de367a7	-0.2285866876543967
181	0x3fd17878ab2a864e	0.27297798839035614
182	0x3fd8b1af0602430d	0.385844951503757
183	0xbfa3d754cee3e2d2	-0.038752222304486175
184	0x3fb2f5ef51532ae6	0.07406516776533642
185	0xbfd4aab06dbc75ee	-0.3229180404321984
186	0x3fa52a6cb80a6375	0.04133929964627373
187	0xbfd9a36a0a0a8fab	-0.40059901218978194
188	0xbf73bc97c04be328	-0.004818527963600862
189	0xbfd90e455d373ee7	-0.3914960298834402
190	0x3fc743814a5c4933	0.18174759035952945
191	0x3fbc7e0ab265d7de	0.1112982450048032
192	0x3fb90f68f320f4fb	0.09789138732681472
193	0xbfd1b15f86c4080f	-0.276450997931648
194	0xbfbccaa2f3e8f8e4	-0.11246698813281203
195	0x3fc585ae93439e26	0.16814214888221207
196	0xbfc3b5772867ef33	-0.15397538636158856
197	0xbfc008ce318042d9	-0.12526872078935616
198	0xbfce0c33bf4cd6ed	-0.2347473796923433
199	0xbfe04f122767ddbf	-0.5096522111552345
200	0xbfd66b2665fa9832	-0.3502899165999934
201	0xbf9425117a0c0a48	-0.019672654222640668
202	0x3fcba6d4ac59d938	0.21602877059530967
203	0xbfcdb56a518c19c7	-0.23209885579872333
204	0xbfd66b713e6af476	-0.35030776114928786
205	0x3faeed39b455e4fe	0.060403636230100574
206	0xbf9903cfa3292eaf	-0.024428600629376514
207	0xbfc1fdf92e8daed4	-0.1405631520568621
208	0x3fcb441d6e7c4afb	0.21301620383072603
209	0xbfbb282e83a277c1	-0.10608187402473758
210	0x3fd48aa260623bd5	0.3209615651366538
211	0x3f8681fdb470f3c7	0.010990125722054501
212	0x3fd18dea9a492d9e	0.27428689066865697
213	0x3fc18161d9086a6d	0.1367609319430189
214	0xbfb58a18fad25240	-0.08413845180104662
215	0xbf85cb23ffcdbbc1	-0.010641366237647778
216	0x3fc9f643f98d8de9	0.20282792744829628
217	0x3fb139ade6eaf434	0.06728636634484603
218	0xbfbc296eac9b83a7	-0.1100072070507979
219	0xbfb7a0cb610ecb6f	-0.0922972785909175
220	0x3fc6319d6d9541c4	0.1733891282151615
221	0x3fb7c8c88630d843	0.09290745998518539
222	0xbfb1e55dd4899164	-0.06990610541249037
223	0xbfb1fc6cc63bcea3	-0.0702579483002475
224	0xbf679f5701e856f8	-0.0028835963596617296
225	0x3fc436957be74870	0.15791576909993266
226	0xbfd5e1d9f23013a3	-0.34190987254288013
227	0xbfd2d13419f4bfcd	-0.29401876959582013
228	0x3fbe16c996f5312f	0.11753520904057234
229	0x3fc96e61621f6a50	0.19868104258678665
230	0xbfbe6deb133256d8	-0.11886471956890021
231	0xbfc802e5b9326f8c	-0.18758842032263734
232	0xbfccfa2bda92b033	-0.22638462231168574
233	0x3fce96172cac67d3	0.2389553993351102
234	0xbfb46b9436ed81a9	-0.0797665247059799
235	0x3fc1d254b705fd5e	0.13923129021348307
236	0xbf94e8b1de1b77be	-0.020418910199502475
237	0x3fa06e94d936c37b	0.032093669429179315
238	0xbf5204480a09518d	-0.0010996535785539913
239	0xbfb831bf2cf0820b	-0.09450907561450365
240	0xbfd246cb8162514b	-0.2855709804073469
241	0xbfc5a8fde063236f	-0.16921971756371643
242	0xbfd3a41cf3e05de0	-0.30689166847284177
243	0xbfa4d1a237c8e22d	-0.040661877927451996
244	0x3fdd3aeda1af1e0e	0.456721694845755
245	0x3fc8b206bc578792	0.19293293186552468
246	0xbfb16d4ae57503b8	-0.06807392217616737
247	0x3fc9ecec2ecff0fe	0.20254280362849636
248	0x3fd8d04356692fa9	0.3877113670212063
249	0x3fa6d5d62a6fc644	0.04460019367241988
250	0x3fcb8d9f1733e06c	0.21525944359723626
251	0x3fc02184428d7af9	0.12602284669534194
252	0xbf29e84a42837c4f	-0.00019765764705590097
253	0x3fd9983ce87f09f6	0.39991686539374827
254	0x3fd224d16647e58d	0.28349719036449345
255	0x3f9afaa6e9986e48	0.02634678650620817
