Baseline/lstm_gan.pth (torch, 58807 bytes, 46 tensors)

lstm1.weight_ih_l0 f8 [40, 7]
000000 d0 33 f0 93 4a a7 77 bf 42 42 5c d0 a9 cd c1 3f
       -0.005774775810107394 0.13908884691092466
000010 7f e8 c6 e3 c6 40 cc 3f 66 42 4d 7f e1 ea c1 bf
       0.22072683450625516 -0.1399804946509164
000020 db ae 50 d3 0f 05 65 bf 35 0f 00 fa d0 5e c5 3f
       -0.0025658902254884603 0.16695606429140644
000030 07 66 ba 5b 20 38 ca 3f ef 88 d6 cd 0c d8 d6 bf
       0.20483784178649975 -0.3569366464745504
000040 c1 b4 fc 68 c4 48 ac bf f0 68 72 e0 4a ce d7 bf
       -0.055242669883548874 -0.37196609419483107
000050 db 34 ee e9 3e 29 b7 3f 6e 96 23 ac 9b 9a ae bf
       0.09047311030572606 -0.05977331615740132
000060 e2 c8 3f bf 06 38 b0 bf 42 e4 6f f6 61 a5 c5 bf
       -0.06335489434403344 -0.1691095784479178
000070 45 05 0b c7 af 2b d5 bf c7 28 37 68 ac a2 ce 3f
       -0.3307914203433778 0.23933940018316077
000080 e1 a5 bb 1e be 7a c5 3f 5a 5f 6d 06 40 91 c6 bf
       0.16780830860743293 -0.17630768121557133
000090 8d 7c b5 39 7a 18 a5 bf 99 9d a3 37 91 8a b5 bf
       -0.04120237307028516 -0.08414561851861037
0000a0 c4 c3 d6 b4 a7 f9 c1 bf b2 d6 dc 99 3b a8 c3 3f
       -0.14043136911416643 0.15357155812096362
0000b0 fe 14 2c c0 cf 4b be bf 8e 1c 76 09 09 8e b7 3f
       -0.11834429208473193 0.09201103669157559
0000c0 50 dd e5 5c 6e b9 c2 3f 4d 11 8d 11 c9 20 d3 bf
       0.1462839082339351 -0.29887606348008405
0000d0 25 35 e2 d6 9d 9b c2 bf 30 86 10 8b 1c 4a 84 bf
       -0.14537404053081918 -0.009906981462395853
0000e0 51 1e 11 0e 50 aa c7 3f a2 8a 7d 31 57 7f a6 3f
       0.18488503157481032 0.04394028166895693
0000f0 fb 96 0d 97 b8 59 c1 bf 8d ea 09 c7 c1 37 b1 bf
       -0.13555056930197637 -0.06725703343719598
000100 5f 7a c2 31 40 1f d1 bf 79 ec 62 99 83 54 9a bf
       -0.26753239497512554 -0.025713020550693664
000110 0a 5c 5e 76 51 d3 c1 bf 35 c6 2b e5 e6 4f c9 3f
       -0.1392614200564995 0.19775091352453136
000120 4d 4e af b8 f8 46 53 bf 37 58 ff 81 82 67 b2 3f
       -0.0011765889091649607 0.07189193414464588
000130 a9 f4 4b 64 66 87 d0 bf 20 1c fd 12 f0 35 7d bf
       -0.25826415819740106 -0.007131517209763266
000140 64 60 48 da 08 34 c0 3f 1b 9f 1e 03 53 00 c0 3f
       0.12658796938262917 0.12500989582371677
000150 e1 23 bd dc 37 a7 7b bf 44 35 bd 10 95 35 b5 bf
       -0.006751268588978982 -0.08284885080975807
000160 d7 1e 54 71 be 3b c7 3f d9 fc 11 74 1a c3 e1 3f
       0.18151073964712935 0.5550663249013282
000170 d4 f1 47 fc ec 28 cf 3f 25 fc a3 76 a4 87 c5 3f
       0.24343645399484493 0.1682019786166801
000180 b9 74 76 89 e2 b2 8d 3f 08 16 dd dd 33 2e a3 3f
       0.014501352138547184 0.037461872895203696
000190 3e 4d fa 18 5e 9b a6 bf 29 41 ac b3 3f 72 bb 3f
       -0.044154110478439965 0.10721204887909565
0001a0 ff 73 82 65 e6 e2 ae 3f 89 9c 60 59 18 0c c8 3f
       0.06032485951548238 0.18786911358003902
0001b0 60 69 d9 c5 18 4b c5 bf d5 48 af 79 62 ec c0 bf
       -0.16635427151306725 -0.1322138876117324
0001c0 01 4a b9 ad 39 d4 ae bf ee af 5f 25 b9 2c 69 bf
       -0.06021290059711149 -0.0030730835087435715
0001d0 16 41 39 27 f2 4b d2 bf ff 24 8e 0d 81 ec c8 bf
       -0.2858853705447627 -0.19471753274800815
0001e0 b9 4a 1c db 76 bf b1 bf cc 4b 1a a4 1d c9 a3 bf
       -0.06932776307466328 -0.038643766672201346
0001f0 59 85 f8 4e a9 3d d6 bf 52 b0 e8 01 d8 94 d0 bf
       -0.3475135108183927 -0.25908470331592526
000200 91 ac 14 69 29 c0 80 bf d7 77 46 a0 30 3c d6 bf
       -0.008179019469557043 -0.34742370273477036
000210 95 2e 29 5e c9 ec b4 3f 4e 4b 8a 7f ca 0a d4 3f
       0.08173807667588513 0.3131586308965567
000220 19 2c 3f 1f fb 5a b4 bf 35 cb 83 4f fc 4d af bf
       -0.07951325905666841 -0.061141857820891245
000230 8e f1 ee 61 84 49 cf 3f c5 bd 1f 8e c3 99 89 bf
       0.2444310644331264 -0.012500312590389204
000240 d5 26 ae a7 41 47 c0 3f 79 da b1 8a 82 c8 c6 bf
       0.12717457473291086 -0.17799407741741272
000250 89 da b1 0a 5c 03 c5 bf 41 27 54 54 dc 38 80 bf
       -0.16416502496914046 -0.007920953105457708
000260 73 64 bb 57 15 63 c7 bf f6 03 3f 68 e9 8c a1 bf
       -0.18271128448285232 -0.03427819631134092
000270 36 91 2d c8 85 73 8f bf 3f a5 e3 3d a1 35 d0 3f
       -0.015357060595939314 0.2532733063113319
000280 20 75 96 c3 f5 45 bb 3f 64 c5 34 86 6f ca ca bf
       0.1065362551220983 -0.20930284550699263
000290 be 72 23 31 df ca 93 3f a6 6b 0b a7 bf 7d 84 bf
       0.019328582166837853 -0.010005471501633622
0002a0 e9 58 b5 2b 0d 0f a3 bf 68 45 e5 4e a9 b9 c3 3f
       -0.037224208436485835 0.15410343506168123
0002b0 38 55 5f 60 9b ce ca bf 79 66 79 7a 6b ef 97 bf
       -0.20943014341052346 -0.023374251699669977
0002c0 95 a6 61 f1 ee 48 b4 3f 62 3e e4 f0 70 c3 b5 3f
       0.07923787491895447 0.08501344567434324
0002d0 6c fb 9f 88 df 39 ce bf 42 a3 21 a9 b5 7c c7 3f
       -0.23614114924563567 0.1834933353268529
0002e0 95 79 c4 89 99 86 d5 bf 5d b8 89 a7 76 93 c2 3f
       -0.3363403172860669 0.1451252286964885
0002f0 c0 d8 ed c1 2d 68 b3 bf 92 13 09 12 1b 9d c5 3f
       -0.07580839142414941 0.168856986814856
000300 ce 78 59 66 10 fe ce 3f 60 df bb 83 b5 45 b3 bf
       0.24212841985258254 -0.07528242555770026
000310 5d ac f7 ca ca ce 8c bf c3 42 d2 36 49 0c ca 3f
       -0.0140662997427709 0.20349993874380887
000320 04 8d ba 38 96 54 c8 bf d1 d6 b5 ec 8a e8 a7 bf
       -0.1900813843722987 -0.046696034808446314
000330 da d6 b5 dc 07 13 a8 bf 84 2b 9e 5d c6 b8 c9 bf
       -0.04702019280641219 -0.2009513814085403
000340 40 b5 ef 9e 0a 48 d1 bf ae ef 26 86 15 55 bb 3f
       -0.27002206345681046 0.10676703000257134
000350 ed 55 fb 01 06 85 a8 3f fc 0e e0 66 f5 3f ab bf
       0.04788988851730012 -0.053222340400706586
000360 5d 7c 6f cd 2a c3 bc bf ad de 5b 53 62 4f d1 bf
       -0.11235301509394575 -0.27047021999849613
000370 05 58 42 25 22 aa 7c 3f c7 9d d7 52 bc dd b2 bf
       0.0069981893358512836 -0.07369591734424495
000380 29 3b 3c ff b6 c7 d9 bf 34 02 c4 be 0e c7 be bf
       -0.40281462598152246 -0.12022487790455544
000390 a8 cc fa 9d 1f 87 b1 bf 14 a6 11 96 d6 48 a3 3f
       -0.06846807104993735 0.03766508657356496
0003a0 0a d3 08 b1 81 35 b5 3f dc 49 7a 00 b4 5b ac 3f
       0.08284769603853817 0.05538713937598391
0003b0 27 bf 72 af 68 ad c8 3f 32 50 16 d1 fa 40 c7 3f
       0.19279202048118657 0.18167052468618433
0003c0 b8 c4 c0 0f 1d 7f af bf f7 84 1e 97 f1 70 c7 3f
       -0.061516674206708755 0.18313426855915058
0003d0 44 1b c0 be 5a 29 c1 bf 21 e5 3f b9 98 03 c1 3f
       -0.13407453836426886 0.13292225880994926
0003e0 40 b9 42 6b 50 6b b0 3f 62 af 19 cf 70 c1 ae bf
       0.06413748377483319 -0.060069585114290516
0003f0 ee 32 3d 2c d6 ea b8 3f 20 e3 b5 74 87 cc bc 3f
       0.09733332233481537 0.11249586676957479
000400 60 e6 b3 fd 1b 01 c0 bf d2 d4 a1 81 43 6a bd bf
       -0.12503385436848458 -0.11490270533416272
000410 53 ea d0 08 54 cb c2 bf f6 e5 8c c9 d5 8d c4 3f
       -0.14683008604500233 0.16057846394851055
000420 5c 4a 55 d8 21 af cc bf e7 7e 99 c9 8e d9 cf bf
       -0.2240946108164107 -0.24882683604936703
000430 f6 46 06 aa 50 4a ab bf 77 ab ed a5 f3 90 99 bf
       -0.05330135417456276 -0.024967009546724008
000440 fa 02 fe 01 7d de c3 3f b4 97 fe 00 83 52 53 bf
       0.1552273044326496 -0.001179340299111581
000450 1f 53 6c 22 4f de 89 3f 09 17 22 64 2e 72 d4 bf
       0.01263105224419686 -0.31946906832341476
000460 40 97 23 ea b0 1e c5 bf 42 46 7a 82 ca 11 c3 3f
       -0.1649991172081915 0.14898043986299753
000470 73 64 1a 7d 7b a2 9b bf f7 ed 70 55 76 92 8c 3f
       -0.02698700858181664 0.013951229555565254
000480 80 12 8f 6a d5 99 84 bf c9 be 46 ad 3f 6b a3 bf
       -0.01005903941575892 -0.03792761793317607
000490 2b 1e 11 ac 49 28 b1 3f 94 62 f2 6f 5d 1c d1 3f
       0.0670209927640079 0.267356261561454
0004a0 28 7e fc 67 94 2c 91 3f 96 2f 5d 74 29 a3 c6 bf
       0.01677162060434348 -0.17685430700146004
0004b0 cd 79 eb 8c 64 b8 cf bf d4 79 eb 5c 5e 8f cb bf
       -0.24781472092486326 -0.21531276261425936
0004c0 a9 97 62 39 d6 e3 c2 3f 0f 45 ca 83 82 58 b2 bf
       0.14757802774437082 -0.0716630527260984
0004d0 00 a2 83 30 0e 93 cb 3f a6 92 50 5c 1e cf b3 bf
       0.2154252755056092 -0.07737912896898055
0004e0 f9 c3 87 cf 7a 3d 9c bf 88 dd a6 38 5a e1 d5 bf
       -0.02757827655472409 -0.34187942058948595
0004f0 3b ec 36 4d 9c 43 a9 bf d8 bc de 34 4c ff bc bf
       -0.049343952584842 -0.11327053347371263
000500 52 f9 e1 7b 43 0c c9 3f 30 72 f9 a0 a0 25 d2 bf
       0.19568675564728238 -0.2835465976729976
000510 01 e9 bd 5c c6 b4 ce bf 27 8b 3e 2c 81 26 b4 3f
       -0.23989181068811408 0.07871253328498239
000520 84 dd c4 33 1e 79 aa bf dc c8 0e c3 79 97 ca 3f
       -0.051705306834658266 0.2077476694517547
000530 02 37 d2 1f 5b 7b bc 3f d6 5e 4a 32 fc a8 88 bf
       0.11125726248630133 -0.01204106358026939
000540 50 ce 9a a7 a7 81 c8 bf cb ad ac 31 d4 62 c6 3f
       -0.19145675357650527 0.1748910181571389
000550 80 38 cd 6e ee 82 97 bf d5 14 35 1e 49 d6 d1 3f
       -0.022960401070399872 0.27870395612656057
000560 ab 54 d4 d8 2f b5 b7 3f 72 02 a9 a3 3e be b7 bf
       0.09260844272314965 -0.09274665351495928
000570 40 e1 a0 f5 79 2b c2 bf ad af a1 1f 8a 5f b1 3f
       -0.14195179456306484 0.06786406776671923
000580 1e 1e da c8 bf f4 b0 3f b1 3b 4c 59 f0 c8 cf 3f
       0.06623457578290767 0.24831966743701409
000590 e1 61 a3 d1 4d e3 bb bf 20 4f 2e 57 eb b6 cc 3f
       -0.1089371334850351 0.22433225399856216
0005a0 95 cc 83 a3 da 1f be 3f 98 dc b2 59 3b b7 c8 3f
       0.11767355434476408 0.1930917919141606
0005b0 53 50 b6 03 be 69 96 bf 68 19 bc 5a 20 c7 c3 bf
       -0.02188774964959379 -0.154514354995807
0005c0 c5 5b 4d ee aa 10 cb 3f bb 82 1a 94 0b 76 c2 3f
       0.21144615779732426 0.1442274544870282
0005d0 aa 0a 6a 90 b2 ca a4 3f 05 17 e3 ef 2e f0 b1 3f
       0.040608959320726015 0.07007115704172058
0005e0 b7 5f 32 46 19 ad b3 3f ab 68 bd ae 6c 7a 86 3f
       0.07686002696789172 0.010975693781507386
0005f0 53 42 f6 63 e2 48 aa 3f 7e 95 6b a3 bc 7a c0 3f
       0.051337313368212144 0.12874563197616945
000600 02 7e 29 b9 d8 76 aa bf a4 a0 b5 01 1a 7f cf 3f
       -0.051687977412026256 0.2460663326594431
000610 5d 26 fb 82 c2 70 af 3f 9d 3e 4b 28 e5 b0 c1 3f
       0.06140716408624478 0.13821091144062772
000620 7b 4e bc 3c d8 dd d3 bf b4 2d f7 28 65 25 b5 3f
       -0.3104153245087457 0.08260185480246812
000630 f1 24 1b f8 5e b6 c5 3f c2 a1 83 03 87 67 b1 bf
       0.16962802042534222 -0.0679859527186926
000640 be a1 83 73 93 3e b1 bf 5a cd cd cc 18 9b a4 3f
       -0.06736108369989943 0.04024579525039469
000650 9a 98 e4 e5 7c ad d3 bf 64 1b bd 36 de 5b 86 3f
       -0.30746386003955595 0.010917411847584275
000660 84 ea d1 f3 3b 3e d1 3f db cd 1d 22 d8 18 bf bf
       0.26942347345872286 -0.12147284348412006
000670 f6 67 30 f1 f3 ad d2 bf 84 cf 60 42 b1 6a c2 bf
       -0.2918672423708125 -0.14388099423524292
000680 45 b3 67 67 70 09 b0 3f df 11 86 70 81 19 c8 3f
       0.06264402889764849 0.1882783698494128
000690 8a 27 99 1b 3c 6e d2 bf 81 be fd a9 e6 47 cf bf
       -0.28797819800512825 -0.24438174534178717
0006a0 99 37 ad 3a d0 0d c3 bf b4 b8 1c 55 18 51 b8 bf
       -0.14885905137128644 -0.09498741224226387
0006b0 fa 2d 47 15 09 7c d6 bf 58 c8 30 ab 90 12 c0 bf
       -0.35132052495893584 -0.12556656226076046
0006c0 67 56 fa c3 1c 0d d1 bf c6 bc 1e 22 a6 79 cc 3f
       -0.26642531527008945 0.2224624315835852
0006d0 68 01 a8 88 46 87 d1 bf 5d f8 8a 12 01 2c bd 3f
       -0.2738815626653577 0.113952700640739
0006e0 25 43 32 9f a6 b5 c5 bf 76 79 9b 05 7d cf b1 3f
       -0.16960604451426167 0.06957227122209084
0006f0 be a1 ef 77 4d b4 b5 bf 73 53 dc e8 8d 2c c2 3f
       -0.08478244951368816 0.14198469038151593
000700 fd 8a 26 ad c7 3c ba bf 62 5a e9 9a 6d f5 ae bf
       -0.10248992898281624 -0.060466218147372755
000710 1a a9 c9 bc 87 b6 c3 bf ed 13 cd f7 c2 8f be 3f
       -0.15400788038397978 0.11938112783271011
000720 e5 75 19 04 d9 b8 c7 bf 9b 86 ce bc 41 c1 c5 bf
       -0.1853286046997901 -0.16996022910193606
000730 85 4a 52 85 0a 9b bd bf 38 a2 e9 88 dc eb d0 bf
       -0.11564698939245417 -0.2643958413159768
000740 2b 02 39 31 f7 3c b2 3f 43 6b 70 31 9d 02 bf 3f
       0.07124276115155996 0.12113363701830075
000750 6b b5 de b0 30 20 d6 3f 6b b5 de 50 2b 10 d6 3f
       0.3457147338147794 0.34473688981491674
000760 99 11 19 f3 cf eb b3 3f 26 19 f7 1e 3b c7 c0 3f
       0.0778169601918023 0.1310800458142662
000770 00 dd 0f a9 58 d5 dd 3f 50 79 86 29 8f ad d1 3f
       0.46614662656743633 0.2762182145615002
000780 ba 5b fa ab 48 f4 b2 3f 81 27 9f 15 fe 32 ae bf
       0.07403997610741345 -0.058982792033545735
000790 e2 b2 c1 34 df 80 93 3f bd fe 11 76 3b 5f a7 3f
       0.019046294779786595 0.04564843956268081
0007a0 04 95 18 48 ec 13 c8 3f 63 b2 1b f3 db 53 a3 3f
       0.18810800094903624 0.037749169756214916
0007b0 2c c5 0d 69 ab 12 d2 bf 67 19 55 0c 12 7f a4 bf
       -0.2823895002284924 -0.04003197098295424
0007c0 14 c4 83 b2 e7 a9 b9 bf de 1d be a6 27 6f cf 3f
       -0.1002487955882006 0.24557967797976138
0007d0 e9 48 40 ff 1e 99 b7 3f 11 b2 38 7e 5d c1 db 3f
       0.09218019229618658 0.43367707563700814
0007e0 cf 70 d1 b8 79 16 b7 bf a5 e2 7e 37 55 09 b4 bf
       -0.09018669855271642 -0.07826740841745534
0007f0 e9 e8 7c 51 98 b5 54 bf 94 9e 5b 9e a1 f6 d1 bf
       -0.0012639987453000828 -0.28067818131101174

lstm1.weight_hh_l0 f8 [40, 10]
000000 b6 d5 4b 7c 7c d8 c3 bf 7d a6 52 d3 71 74 c7 bf
       -0.15504413670684664 -0.18324110811709096
000010 8c 80 13 16 da 1c b3 bf 4e be 29 74 67 2d cb 3f
       -0.07465899504632229 0.21232312366508882
000020 56 29 91 2b 51 05 cb 3f b7 6f 96 75 49 ca ca 3f
       0.21109976413056114 0.20929830781540001
000030 d9 00 bb b7 88 8a c6 3f 35 9b 77 6d f5 61 d0 3f
       0.17610272380080152 0.2559789246574156
000040 8d c0 ab 80 5f 63 c4 bf 3a 43 3e 80 9e c2 cb bf
       -0.15928262503394244 -0.21687680494189882
000050 64 8e 68 aa df e3 bd bf 0f d3 fe 2a c2 da d0 bf
       -0.11675832662927516 -0.2633519573094398
000060 58 9e e4 b1 12 8b b2 bf 98 01 4e 2a 6a 6b d4 bf
       -0.07243458598224473 -0.3190560734874679
000070 df a3 55 44 c9 e3 cb bf 2d 62 ad e7 e1 e6 8f bf
       -0.21788898312232072 -0.01557709205887744
000080 4d 59 22 b1 ff 21 b3 3f c1 0b a0 2c b4 82 d5 bf
       0.07473753046574423 -0.3361025272171752
000090 98 76 d3 18 95 e9 c8 3f aa 9d e3 43 17 7e c2 bf
       0.19462836944778839 -0.14447298827074678
0000a0 63 1f aa 1c fc 5e d0 3f 45 a0 1f 40 1e 01 cc bf
       0.2557974128653681 -0.21878412371666137
0000b0 6b 35 fb 9f 41 63 ba bf 1e fa 2e 05 5f 8a a3 bf
       -0.10307703166764319 -0.038165063269378616
0000c0 ec df 7c d5 c7 fa cd 3f 6a e2 d1 85 ac f0 c1 3f
       0.23421571659287055 0.1401572850625315
0000d0 0d 0d e5 79 ca 6c dc 3f 2b f3 10 a0 81 e5 a8 3f
       0.44414007095129265 0.048625994481403666
0000e0 29 9a a5 6e 11 01 c3 bf 64 04 95 0f c4 65 a5 bf
       -0.1484700956600176 -0.04179203691683922
0000f0 56 e2 cc 73 cc 93 ce bf 87 5f f0 87 97 19 b9 3f
       -0.23888545660317345 0.09804675167867859
000100 1c b3 dd 87 87 8d c6 bf a9 f6 ca c1 71 50 cc 3f
       -0.17619413503725745 0.22120496714153617
000110 f4 91 39 ec 8c c2 7d 3f d8 73 a0 50 19 96 b0 3f
       0.007265615920549074 0.06479032724787659
000120 44 b8 20 52 28 83 98 bf d1 df 4a ff 16 93 ca 3f
       -0.023937826168712442 0.2076138254685689
000130 be ea f1 52 bf d1 ac bf 8f 08 8f 52 5e c4 b9 3f
       -0.05628774535667479 0.10065259471505981
000140 f3 58 07 96 7f a0 bb bf 1b 3e 4f 4e 4e 34 c6 3f
       -0.1079177609711655 0.17347124885280682
000150 9e aa ff ed 52 03 cd 3f 98 08 75 1f 15 ad ce 3f
       0.22666393872289786 0.2396570590590883
000160 cf fd b0 97 b1 75 d2 bf cb 3b cd 6a 69 73 c2 bf
       -0.28843345464335085 -0.14414708819319197
000170 bd 01 b1 b7 0d 25 d4 3f 85 ee 92 28 ff db d0 3f
       0.3147615712987564 0.26342753374385836
000180 f6 b9 0c a0 6b ce bd bf 32 44 97 85 b4 21 ba 3f
       -0.11643097550834355 0.10207679997917365
000190 30 22 af 56 4d b6 c8 bf 4a 74 32 07 44 4c ba bf
       -0.19306341869948218 -0.10272622276029711
0001a0 5a 3d db e7 2e 4d ba 3f aa 22 83 31 cb 25 a3 bf
       0.10274022255474816 -0.0373977182330852
0001b0 1f e5 15 3c 06 f7 ba 3f bf eb c9 d2 48 7b a8 bf
       0.10533179251605816 -0.047815585833596234
0001c0 de 09 b6 bc 10 9a b4 3f 1e ce ac 99 46 78 b0 bf
       0.0804758511276655 -0.06433526279288812
0001d0 3f 7a 26 59 66 af cc bf b0 0a d1 fe 5b bb 85 bf
       -0.22410277703325396 -0.010611265863308489
0001e0 ed ec a3 df 99 35 b0 bf 1f 16 ab 17 cd 62 d3 bf
       -0.06331788740128604 -0.30290534316404377
0001f0 7b f1 26 e3 5f 18 b3 bf bd a2 8d 70 3d 13 cc bf
       -0.07459067626672848 -0.2193371581627356
000200 57 fd 03 8c a4 4f da 3f 18 a7 86 67 5e 64 a1 3f
       0.4111110083903972 0.033968877923440555
000210 24 30 ec 0c a6 aa d5 bf fa 7e 5e 9a 41 94 bd bf
       -0.3385405660817489 -0.11554346102502314
000220 0a 1f 42 e4 a1 fd c8 bf 92 0d 47 a2 78 9e b3 3f
       -0.19524024625229003 0.07663682901243465
000230 9c d6 7f bd ad 46 d6 3f 0d a0 f2 d8 9b 41 b1 bf
       0.34806388383672426 -0.06740736052108805
000240 bf 7a 47 e0 bb 6b d1 bf fc 16 d6 40 ca 70 ca bf
       -0.27220055486933953 -0.2065670792182387
000250 b7 50 63 05 d4 bb d1 3f 0f ef 47 b5 a4 d5 d7 3f
       0.27708912397543933 0.3724147577593024
000260 74 c3 c4 cc d1 f3 ba 3f f1 5c 27 81 64 26 b7 3f
       0.10528289078935221 0.09042957451980606
000270 b2 47 7d cc 9c 76 be bf bc d5 cd d8 6c 95 d0 bf
       -0.11899738304535282 -0.2591201894022921
000280 6c a5 69 77 63 dd d6 3f 34 c6 91 2a bb 4e cc 3f
       0.357262484182306 0.22115268305383184
000290 26 6a 2c 8c 5f 4f d1 bf 9e 6c 42 c6 7f e2 a0 bf
       -0.2704695576555046 -0.03297805113944573
0002a0 a1 8c 86 a5 b3 98 cc bf 52 a6 1e 24 f6 80 b4 3f
       -0.2234100874166858 0.08009279615239365
0002b0 e2 90 a1 61 f2 7b d0 3f 6e 32 6c cb e8 e9 c3 bf
       0.2575651124409558 -0.15557584698435128
0002c0 a7 aa bf 6f c0 89 d1 bf ff 2b f6 af 36 e8 a4 bf
       -0.27403269684752235 -0.040834149341286256
0002d0 ea 21 8f 80 b1 8f c4 bf 3e 99 50 61 af a9 d3 3f
       -0.16063517358112672 0.3072317552890985
0002e0 99 0a c3 79 32 8e be 3f 8f 64 a2 cf f8 c8 9c bf
       0.11935725662901077 -0.028110397027010733
0002f0 a5 8c 95 62 49 9c a4 bf f0 76 1f e7 58 51 85 bf
       -0.04025487259311803 -0.010409063866912288
000300 b6 b0 57 c1 12 7a d3 3f ab 04 66 1e b8 86 ad 3f
       0.3043257606611961 0.05766845103335901
000310 83 53 b1 92 ae 44 e0 bf 77 48 4f c6 de 9e a9 bf
       -0.5083840241519372 -0.050040208537795054
000320 27 b5 6e 52 3f 9a b6 bf cd 88 0a a8 06 0b a3 3f
       -0.08829112780104663 0.037193496716342624
000330 b3 cb 64 70 01 3c 7c 3f ae 6e 88 8d 78 99 ae 3f
       0.006893163319818751 0.0597646401185704
000340 93 af a9 90 a4 5b c2 bf ef ef fe e1 31 cb a7 bf
       -0.14342171729674344 -0.04647212871302019
000350 95 ea 42 d1 e8 ab ce 3f 81 da f4 26 d9 34 c7 3f
       0.23962125985947993 0.18130030061884742
000360 7c 2c 45 c2 17 bc bd bf 1b be 54 0f 3d 36 c2 bf
       -0.11615131848263788 -0.1422802281244778
000370 41 b4 05 89 e2 d4 89 bf 85 66 bf ef b0 5e b5 3f
       -0.01261307697924441 0.08347612240995701
000380 09 6a 12 dd 22 aa d6 3f 25 54 87 44 71 14 aa 3f
       0.3541342886834689 0.05093721353083706
000390 56 59 3a a1 9e 96 c6 3f 15 8f dc db 29 6a d2 bf
       0.17647154686410244 -0.28772970648627566
0003a0 9c 4c 79 06 1b 44 d4 bf 31 c9 21 0f a9 b7 ca bf
       -0.3166568339558553 -0.2087298702131846
0003b0 2f 7b 97 6c 2a ac d8 bf 74 4b 50 27 d2 c4 de 3f
       -0.38550816158924567 0.4807629951403023
0003c0 ef 1a ac 57 03 60 d3 3f 66 9d e3 f6 1e ca d7 bf
       0.3027351719069164 -0.37171148405328436
0003d0 2f db 54 b0 93 14 a2 bf c8 b8 13 3a 58 ac c0 bf
       -0.03531323935970076 -0.13025954089920888
0003e0 68 0e 95 1b 2d 75 c9 3f c1 e0 de 3e c9 82 bb bf
       0.19888843390264133 -0.10746438774993107
0003f0 fe b6 7d 5b cb 34 bd bf 60 e4 7b 0a 95 35 c2 bf
       -0.11408682807606493 -0.14226019870673934
000400 37 65 29 f4 c4 87 cd bf 57 57 e0 ee b9 f4 d2 3f
       -0.2307058517642788 0.296186908033055
000410 db 7c 61 87 65 5f ad bf 43 2e 21 20 a1 d1 d4 3f
       -0.057368443275430635 0.32529476297051846
000420 d0 28 84 a4 55 16 d2 bf 05 88 b3 6c e2 72 ba 3f
       -0.28261319223441905 0.10331549791183654
000430 a3 e3 84 58 7c 1d d4 bf 19 a6 ca 34 2e c8 a8 3f
       -0.3142996658748933 0.04840225595883058
000440 de 77 51 e3 11 4c bd 3f 91 da 7a d0 b8 ab c5 3f
       0.11444198417436222 0.16930303744966982
000450 3b fd 39 0d 08 05 bf bf 18 86 31 0f 7a 5f b8 3f
       -0.12117052386200992 0.09520686026510139
000460 65 0e 3b 37 73 60 c8 3f ee 49 38 ed 5e 05 c4 bf
       0.1904434222870918 -0.15641390402795657
000470 64 06 28 dd 3d 61 bd bf bc 15 52 9b a3 95 dc 3f
       -0.11476503991436854 0.44663324516326575
000480 f6 0e ec 65 5c 25 b1 3f 39 62 e2 fd 6f c9 9e 3f
       0.06697633255322075 0.030065297957295043
000490 0d b1 0d 31 37 6d d3 bf d1 47 97 12 c6 f0 cc bf
       -0.3035409907377165 -0.2260978308464119
0004a0 26 f2 d2 46 f1 dc ca bf e0 fb 4c 57 5b f7 a8 3f
       -0.2098676296062802 0.04876218262369725
0004b0 ef a6 63 5d 59 ee c0 3f 6b a6 48 f8 e6 3c e0 3f
       0.13227383670828582 0.5074343537609826
0004c0 2a 51 97 dc 03 62 cc bf b9 17 38 a6 d8 7c c9 3f
       -0.22174118300484597 0.19912250629584863
0004d0 62 fb 59 af 6f 7b c5 3f 2d 8a e3 11 e4 6d cf bf
       0.16782947599491665 -0.24554110406377685
0004e0 74 24 c1 f2 cb 69 b2 3f 9c b2 82 bf e1 f3 cd 3f
       0.07192682911512965 0.23400518275356752
0004f0 7a de b0 54 9b 45 b1 3f a2 13 f1 42 3f 45 d0 bf
       0.06746836488388822 -0.2542265084960552
000500 0b 1e 34 7f 40 01 cf bf 3d 64 23 98 91 b4 d4 bf
       -0.24222570620644066 -0.3235210405087548
000510 54 95 0d aa ac 9d d0 bf d0 7d 2a 90 c5 96 ba bf
       -0.25962368590110896 -0.10386309404065419
000520 06 59 3b e0 fb 23 b2 3f 7a c8 78 35 c2 5c d7 3f
       0.07086157059106676 0.36503653737884856
000530 7e 2a 86 e4 26 6b ce 3f d8 6e c5 f2 e2 a8 bb bf
       0.23764501722719794 -0.10804575373679925
000540 e5 fc 13 ce d4 be a2 3f da a6 c6 13 8d ba d1 bf
       0.03661217704392942 -0.27701117449997315
000550 ca 81 64 10 87 8e d4 bf e0 75 33 f7 78 d2 b9 3f
       -0.3211991939624822 0.10086780581647004
000560 c1 f7 52 e0 0e a8 b7 3f b2 a6 95 9a 2f 07 b7 3f
       0.0924081132570498 0.089953398933768
000570 ab ca 1e 2e 14 ec b1 3f 29 08 b5 5b d0 73 cd bf
       0.07000852704985998 -0.23009685972107377
000580 4c 1b 8c 88 5d b3 a1 3f 48 95 11 11 9e 18 69 3f
       0.03457157413327269 0.0030634963264214755
000590 3b 7f eb 28 a7 36 63 3f ba 3d a3 d8 aa ea c9 bf
       0.002345396503514422 -0.20247397974024556
0005a0 8a 4c a1 e0 ce 53 d5 bf 8a 3c 9c 4c 51 86 d2 3f
       -0.3332402413991039 0.2894480941913079
0005b0 47 a6 59 47 6a b0 ad 3f 45 6c 60 0f 7f 47 b2 bf
       0.05798656578992883 -0.07140344739347977
0005c0 90 43 24 21 31 55 71 3f dd c5 9d 9f 41 8a cd bf
       0.004231635963393723 -0.23078174871220272
0005d0 da 04 9d b8 ed 00 c5 3f ed 6a a4 66 59 90 d7 3f
       0.1640908385689162 0.3681853773465907
0005e0 4d ce 71 a1 9b 6d ca bf 0d ef e8 8b e3 07 cf 3f
       -0.20646996863398429 0.24242824870622606
0005f0 bb bb d7 8b e2 19 cf bf e3 b4 ec 56 a7 58 d2 bf
       -0.24297744587189904 -0.28666099060758493
000600 2e c8 a7 2a 91 7d b2 bf ce 1d 6f 3a 20 5a dd 3f
       -0.07222850123778876 0.4586258478779798
000610 d9 29 90 f4 16 1c b1 3f 68 5f 5e b8 3c 08 b3 3f
       0.06683486433772802 0.07434443951785641
000620 8b 18 d9 c2 b7 a2 c7 bf 28 d1 cf 69 a6 f2 a4 3f
       -0.18465325368942262 0.04091377298019189
000630 2b dc f0 88 16 16 b3 3f 4c c6 f8 5a 3a 3b 83 3f
       0.07455578654558852 0.009390312100637697
000640 96 32 e4 e6 53 cd d0 3f 0e 6c 08 7c 9d b5 d8 bf
       0.26253221080768563 -0.3860849105128076
000650 c3 5c cf 44 82 81 90 bf 5c d5 cc 16 47 b6 b9 bf
       -0.016119037103490507 -0.10043758684772314
000660 1a 51 4d 28 85 8f d2 3f a3 e3 95 06 15 b3 a4 bf
       0.2900097745489504 -0.04042878823651754
000670 aa 63 a1 8b e5 f7 be bf cc 9b 2a 86 52 ed d6 3f
       -0.12097010287233326 0.35823500730697044
000680 27 c7 58 9d f8 97 a9 bf d5 5f 81 3a b3 09 d5 bf
       -0.04998757286774796 -0.32871704781927963
000690 5e 2f 4b bf d0 db c6 3f 22 70 29 f1 49 ae 87 bf
       0.1785832342196682 -0.011562898323227048
0006a0 8f de a0 92 8d dc c9 bf 3d df 7f d9 3b 73 a7 bf
       -0.20204324397649429 -0.045801039028388925
0006b0 3b 87 b3 c7 24 50 c7 3f 4f 2f 58 cd 6e 80 b3 3f
       0.18213329077757998 0.07617847932141085
0006c0 63 bf 8a fd 5b 73 87 3f 40 93 74 70 a9 4b af bf
       0.01145049922465064 -0.061124129273855576
0006d0 35 29 de c1 09 2f d6 3f 5b 16 da b1 30 bc c8 bf
       0.3466209786644357 -0.19324310955214483
0006e0 52 e6 af 49 b7 6a c1 bf 8f 75 a4 ed 5f e3 d8 3f
       -0.13606921289447144 0.38887785155551396
0006f0 d0 e5 7d 07 e1 dd ca bf 94 93 91 63 32 56 c5 bf
       -0.20989621034440953 -0.16669301854849705
000700 80 3c ae a5 15 10 b2 bf b3 cb e9 ce 68 58 d6 bf
       -0.0705579308980635 -0.34914608198522074
000710 ff 66 37 ce 86 a0 bf 3f 09 27 ab 43 bb 55 ab bf
       0.12354319128590062 -0.05338845444710045
000720 48 2c 6b 4e f3 68 b8 bf 0c 9e 8c fa 79 b5 b7 bf
       -0.09535141624944388 -0.09261286131788199
000730 8d 6d 29 9e e7 b7 91 3f eb ce d5 e2 14 c7 c6 bf
       0.0173031034740752 -0.17795048786103193
000740 ca d0 29 db 5f 10 ce bf d7 54 76 77 74 d2 46 3f
       -0.23487470818839135 0.000696474903565526
000750 45 7b 53 0c 46 5d cb 3f bd 54 7b 4c 4c 80 c3 bf
       0.213783985155681 -0.1523528455206015
000760 08 89 f5 bd 7f a4 c9 bf a0 0c fc 6c 44 55 94 3f
       -0.20033261084888232 0.019856518890276065
000770 b4 fe bf 15 2b 28 91 bf 8b 4e 43 15 21 88 a6 bf
       -0.01675479240657181 -0.044007333608218145
000780 ed 5d f5 40 33 73 cd 3f cc 0b a7 e9 6e f3 ae bf
       0.23007813140678426 -0.060450998327290145
000790 46 4a fa f2 ed 69 d4 3f bf ba 9b 9a 0a c6 af 3f
       0.3189654229001103 0.062057811139188505
0007a0 83 d8 a5 89 64 c6 b1 3f 6e 70 3e 10 f1 50 b6 3f
       0.06943348274748655 0.08717257162646927
0007b0 c0 b0 6b 00 ca c3 b2 bf fc a9 59 cb 18 7f be bf
       -0.073300004103376 -0.1191268440685817
0007c0 82 31 52 58 17 65 e1 bf 29 0a d1 62 a2 55 d3 3f
       -0.5435902333279474 0.3021017041211587
0007d0 81 cc d1 e1 c6 81 c2 3f 8c 9a 40 ec f8 7e aa 3f
       0.14458547617286757 0.05174997219028396
0007e0 07 8c 39 1e e0 20 d4 bf a9 fc f2 8e 06 cb c0 bf
       -0.3145065589107507 -0.1311958501810058
0007f0 2e 12 70 20 c7 7a 9f bf c6 7d 29 1c 68 42 d4 3f
       -0.030741797785610973 0.31655314207270313

lstm1.bias_ih_l0 f8 [40]
000000 bb 91 3f f4 2f 8b 6e bf 77 0b bf 0c bc e6 73 bf
       -0.003728479061452653 -0.00485871750783217
000010 63 b8 fe 9d e3 7d c1 3f db ba d9 25 4c dc db 3f
       0.1366543313465086 0.43532088943804376
000020 29 7d ae dc 0d ab ce 3f 83 66 94 e8 5c 5e 94 3f
       0.23959515834301584 0.01989121598771827
000030 ad e2 1e 9f 46 33 b2 3f f5 58 e6 7c 95 cd c0 3f
       0.07109490761548427 0.13127392386076733
000040 9b b4 22 51 66 e9 7c bf d8 5a c8 5b d3 5e 94 3f
       -0.007058524776011012 0.019892981030433216
000050 5e 32 f4 4e ec 60 c0 bf 8e 7f c6 2b fa 04 c1 bf
       -0.1279578576581057 -0.13296439301938928
000060 0a 75 0d a2 68 ac ca 3f 93 53 cd b1 0c 7d ca 3f
       0.2083864966652203 0.20694121057263412
000070 ad 90 46 eb c9 25 b6 3f 94 5a 64 5b 55 72 c9 3f
       0.08651411050829223 0.1988016792535815
000080 e2 1b 54 cb 44 50 bc 3f 55 de 8e e6 25 af 95 3f
       0.110599803581962 0.02117594928469509
000090 3f 21 94 28 1f 4d c1 3f dd 07 ac fd ed c4 bd bf
       0.13516606789949923 -0.11628615801967564
0000a0 cd ac 17 50 63 f6 cd bf c1 3a 7a e5 a9 18 be bf
       -0.2340816632343831 -0.11756383755185153
0000b0 70 6c 22 c5 65 f5 d0 bf 8d f9 26 b8 43 d1 d3 bf
       -0.2649778771535187 -0.30964749320619306
0000c0 0f 53 ed 61 f4 ff ba 3f ad 4e 61 cc a3 25 bc 3f
       0.10546805754468046 0.10994933833836269
0000d0 03 48 89 3e 9d 3f ce 3f e9 22 0b 34 f0 7d ab bf
       0.2363163524010475 -0.053695207932440266
0000e0 57 65 ff 97 88 d2 c1 3f 3e fb ce 73 cb d6 c9 bf
       0.13923747464904565 -0.20186751513207385
0000f0 d0 83 62 ba 4a 3a bc 3f 6e 8b 1d b4 3d 59 d9 3f
       0.11026446390543687 0.3960718401851214
000100 4b f2 93 84 98 d1 d9 3f 6b f7 01 0b 27 26 c1 bf
       0.40341771075307936 -0.13397682225689364
000110 9d a0 93 bf a7 98 a7 3f 1f e2 2e 6b ae b8 bb 3f
       0.04608654225904838 0.10828676335120989
000120 55 29 5b 2d 13 27 84 3f a8 43 c5 7b 78 11 d2 bf
       0.009840154477747257 -0.28231632315606214
000130 66 55 65 a1 88 f6 d9 3f 6b 62 b1 b3 68 c2 c7 bf
       0.40567222367584177 -0.18562039159839414

lstm1.bias_hh_l0 f8 [40]
000000 e1 80 17 f8 7d 40 d1 3f e7 c2 2f 03 19 0d 93 bf
       0.2695612833758912 -0.018604651278965625
000010 69 3d 0a d4 c3 17 9d bf 51 14 99 68 6c 5e b1 bf
       -0.02841096860589457 -0.06784703782712255
000020 35 14 8c 9a 2d ad 98 bf a8 19 25 ba b0 c0 b7 3f
       -0.02409812217503689 0.09278397125772264
000030 92 e2 1e 9f 56 3c b3 3f 19 b2 cc b1 c2 6a b7 3f
       0.0751394403913628 0.091472786338905
000040 3b 75 bb 56 44 bf d2 3f 2c 4a 6f 48 ee f1 80 bf
       0.2929240080828383 -0.008273946366817851
000050 8c e6 85 88 5c a8 d6 3f c6 fe 8c 77 8f ea b8 bf
       0.35402596790627494 -0.09732910793990887
000060 63 8b f2 1d 31 d4 c7 bf 84 53 cd c1 e1 50 c1 3f
       -0.18616308176305116 0.13528081858626362
000070 28 79 cb a5 e2 79 87 bf 71 2d b2 65 9c a6 d3 3f
       -0.011462946591049475 0.30704412394762587
000080 ea 37 a8 96 42 29 af 3f ef b7 a3 d9 a1 c7 b4 3f
       0.06086166466785399 0.08117114604439711
000090 bb 41 28 51 5f 3a b0 3f 04 02 6b d7 e0 49 d3 bf
       0.06339069110277411 -0.30138417279161467
0000a0 e8 29 f4 77 b0 00 d4 3f 2a ea e8 6d 7b 9f 93 bf
       0.3125420733855706 -0.01916306360565493
0000b0 6c d8 44 ca fb 30 c7 bf a6 f9 26 68 64 03 d1 bf
       -0.18118235947048633 -0.26583204432599883
0000c0 f2 aa 84 57 b7 a9 d6 bf 64 4e 61 ec 0d 11 b5 3f
       -0.35410865351393206 0.08229147931097597
0000d0 e0 47 89 be 91 78 cc 3f bf 6e fa 6d 4f b6 b6 3f
       0.2224294834473417 0.08871933398261954
0000e0 54 ca fe 13 8d 27 b8 3f 41 7d e7 ed 85 23 d6 bf
       0.09435350168386353 -0.34591816170537376
0000f0 e6 ef 75 96 56 c5 9e bf 70 8b 1d d4 c6 a7 dd 3f
       -0.030049660619155726 0.46336527552028084
000100 2d ca 4f c2 22 fc b6 3f 6b fb 80 55 be 89 d2 bf
       0.08978478664338559 -0.2896571955679323
000110 2f 18 1b 18 8a ca c7 bf 25 1e d1 64 f3 37 bd bf
       -0.18586851288836345 -0.11413499080037377
000120 14 29 5b eb 6f ca 89 3f 72 c4 ab 63 13 3e 9f 3f
       0.012593149538038285 0.03051023765414524
000130 e0 57 55 59 0c a5 70 3f bb 9d 4e 6c c5 07 cc 3f
       0.004063652265662271 0.21898715771133745

batch_norm1.weight f8 [10]
000000 16 24 4f a7 bf 07 ec 3f 59 98 ba 2b 04 ec f0 3f
       0.875945879722283 1.0576211651000647
000010 9f 6d cb d2 b4 cd ef 3f 79 93 95 54 bb 1b f0 3f
       0.9938606373865929 1.0067704490731713
000020 9f 63 bf be c2 68 f0 3f c5 3e ff a8 bf 94 eb 3f
       1.0255763484076181 0.8619077969287551
000030 61 a6 f6 ce 69 71 ee 3f bd 33 0d 0a 26 06 ef 3f
       0.9513443987136264 0.9695005604095212
000040 13 f6 3a ab c6 73 ed 3f c4 26 6f 58 25 80 f0 3f
       0.9203828186361441 1.0312856153927195

batch_norm1.bias f8 [10]
000000 6b b8 4c 5a d6 cc c8 bf 37 22 fd a0 95 62 aa bf
       -0.1937511387745333 -0.051533389951661616
000010 1d b3 3f 82 68 8e af bf e3 2e 2e d0 3d a7 c3 3f
       -0.06163336362792491 0.15354130425509202
000020 85 55 b8 32 d4 ca 94 bf 2a 2c 0f cf 55 d6 c3 bf
       -0.020304980846125104 -0.15497849092784693
000030 90 58 eb e4 8f 63 cf bf 4f 48 c1 45 25 6b 9f bf
       -0.24522589376164605 -0.030682165510661993
000040 7a 45 1a ef 38 8a 97 bf bf b9 c0 8b c2 4c b3 bf
       -0.022988214105287487 -0.07539001380857878

batch_norm1.running_mean f8 [10]
000000 16 30 ff be cb 9a a5 3f 0d e9 62 0b d7 4c 61 3f
       0.04219662386421434 0.0021118354880772573
000010 fd 08 f0 5c 31 cc c3 bf 97 8a ae 50 c7 73 c7 bf
       -0.15466897047014774 -0.1832207817033875
000020 b9 d7 72 e1 be 25 c1 bf 00 3b e6 f3 11 2d bd 3f
       -0.1339644051383269 0.11396896557401348
000030 25 37 b9 87 e7 88 c4 3f 03 c8 87 b0 c3 a3 86 3f
       0.16042799117206488 0.011054543328075544
000040 7c 31 a8 c6 66 c9 c1 3f a9 ad 06 65 99 06 c4 bf
       0.1389587850575359 -0.15645139153398915

batch_norm1.running_var f8 [10]
000000 ae d1 ec fd 0f 4b 69 3f 8e ba 9f ec c5 44 9b 3f
       0.0030875503865905518 0.026629536216143772
000010 05 4a 8a 82 61 1c 8e 3f 87 cf da a0 fe 4f 86 3f
       0.014702569767256266 0.01089476517095257
000020 26 60 1d 2e 49 90 87 3f 8a bc a5 d3 82 65 93 3f
       0.011505672187624393 0.01894192139428389
000030 23 c0 93 ce e9 1e 7a 3f 3e 59 b6 f3 53 ac 81 3f
       0.006377137478224912 0.008629470705994732
000040 51 8c 25 6f 61 7a 9b 3f 87 09 ec ba 59 48 82 3f
       0.026834032448629867 0.008927060143382416

lstm2.weight_ih_l0 f8 [40, 10]
000000 3b b8 57 5d c5 d1 c4 3f c5 25 3a 84 27 92 6e 3f
       0.16265170152422734 0.0037318012053375337
000010 77 81 19 03 42 e9 c3 bf 87 21 89 3d b5 23 c5 bf
       -0.15555596495961385 -0.165152220770562
000020 0a a3 ae f1 5e 28 d8 bf 66 55 7c bf a3 f2 c7 3f
       -0.37746404268050127 0.18709227418791413
000030 eb 7b e8 e5 3c 08 b5 bf 37 6b 8a d0 0f 2d b6 3f
       -0.08215695012084694 0.08662508813214918
000040 67 c8 da 04 ef 68 c3 bf 21 08 79 47 97 e2 d1 3f
       -0.15163982140581142 0.2794550130821581
000050 d5 0e cd a9 6a 60 47 bf 5a fd 1f 30 13 1e c1 3f
       -0.0007133980576345631 0.1337303147301821
000060 43 14 8b e9 42 95 63 bf 9f b5 2f 0a 33 1c d3 3f
       -0.002390509307903106 0.2985961532093259
000070 04 11 56 a7 7f 2d d2 bf f9 b3 c4 c2 fb b6 d1 bf
       -0.28402701703477384 -0.2767934228930354
000080 06 45 3a 87 63 8b a1 bf 6a 3c ac cf a1 be bd 3f
       -0.034266577012326535 0.1161900646222748
000090 30 4a c7 de 44 56 cc 3f 40 bc 38 a4 e5 94 b6 3f
       0.22138272168975126 0.08820948848072963
0000a0 88 3d 7a ae 08 e4 c2 bf ba 71 41 a9 99 d8 c3 bf
       -0.1475840427342343 -0.1550476147121012
0000b0 82 a3 53 ec cd 9e bc bf b7 35 4f a2 54 56 c5 bf
       -0.11179816264815481 -0.16669710088028264
0000c0 68 33 93 a6 f7 59 db bf 4a b1 06 1c a3 cb 60 bf
       -0.4273661734303489 -0.0020502267581915855
0000d0 7b 0d 0c 3c 33 6f b9 3f a9 53 60 86 ed e8 d0 bf
       0.09935302940362149 -0.2642167866009069
0000e0 0e 5a 8d 91 d9 8e d4 bf ba 7d 84 cb 1f 57 c5 3f
       -0.3212188645751731 0.16672131955509234
0000f0 69 ad 4a 11 3c fd b3 3f 6e d9 07 ee cd 5d a5 bf
       0.07808280393753865 -0.041731295877911787
000100 51 38 e0 c9 00 f4 b5 bf 61 f8 f7 3a 1d 8a bf 3f
       -0.08575444153413626 0.12320120515502843
000110 e5 62 9a fb 43 cb c2 bf 04 9c 3f 22 7e b7 cd bf
       -0.14682817254358507 -0.23216225311554706
000120 b2 46 b4 39 a4 b4 a0 bf a6 26 65 f8 e4 e6 b2 3f
       -0.03262818531415003 0.07383566917737969
000130 85 af 24 13 c2 c5 a2 bf 2f a0 48 5f 96 26 ba bf
       -0.03666502460177327 -0.10215129686605516
000140 f9 40 5f 49 d9 47 94 3f da 8f c6 63 f2 7f bf bf
       0.019805331328655893 -0.12304606376579788
000150 48 21 05 6c bf 20 c9 3f 9d b1 0c 63 ab 1d d2 3f
       0.19631188177505465 0.28306088135539104
000160 47 d3 4d 1b 53 d0 be bf ca 44 9e e4 fc 96 bc 3f
       -0.12036628166772544 0.1116788919591897
000170 ea 56 35 59 63 0c 60 3f 3b 8d 94 06 91 f0 5b bf
       0.001959032096844439 -0.0017053047434466135
000180 b9 86 59 c1 9a a6 b3 3f f4 6c b7 2d 5c a1 bf bf
       0.0767609331174083 -0.12355590931058541
000190 19 75 ec 57 40 89 c0 3f 96 f0 5c 86 a1 00 e0 3f
       0.12918857854030177 0.5000770210531467
0001a0 41 98 50 5e 8b 52 d4 bf dc 34 64 bb 02 b7 d4 3f
       -0.3175381108325191 0.3236700849527787
0001b0 75 0e f2 dd f7 f1 9a 3f 41 69 47 c8 51 c1 b9 bf
       0.026313660546760837 -0.1006060708963661
0001c0 1a b4 f4 74 13 c5 d0 3f 22 b8 aa 91 87 c1 b8 3f
       0.2620285646578978 0.09670302683181878
0001d0 cc fe 4c b8 bc bc ba 3f 12 d8 cc 9c fe dd ca bf
       0.10444240092783302 -0.20989973694094083
0001e0 e3 58 fb eb 88 c5 cc 3f 1f 69 c6 2a 6e cc a0 3f
       0.22477828524160434 0.03280967971950787
0001f0 e6 ba c1 c1 4c b2 c8 3f db b5 5c 17 9c e6 a0 3f
       0.19294127903727726 0.03300941262419218
000200 22 2c cf 7d 00 06 c8 3f ab 84 4b 1d 58 7c bf bf
       0.1876831640532553 -0.12299109187326233
000210 c5 8e 8a 33 2f 5c a2 bf 60 ab 67 e2 4a 51 bc 3f
       -0.03585956100621738 0.11061542537178815
000220 65 63 81 e6 c5 93 95 3f a6 ff ab 92 7c fa be bf
       0.021071521943983557 -0.12100962239128296
000230 5d 3b c8 6a 99 a8 a6 3f 50 75 ac e7 32 08 c2 bf
       0.04425506046765435 -0.14087520897093464
000240 67 68 2b c5 63 f0 d6 bf 1c b4 1e b2 25 2d d1 3f
       -0.358422224567795 0.2683805694057939
000250 04 d3 32 0c 44 a4 c6 bf b3 3c a4 c0 30 d6 c5 bf
       -0.17688799472457373 -0.17059907347036116
000260 12 7a 7d 5b 77 be a4 3f bf 45 4f 62 01 e3 c3 bf
       0.04051564208815618 -0.15536515522266645
000270 0c 33 0c 72 56 01 a8 bf 63 d2 24 00 83 32 9c 3f
       -0.046885205671150926 0.027536436923769957
000280 19 7c ed 78 9d 76 af 3f 31 b9 88 57 d3 5f af bf
       0.06145183659713655 -0.06127796596080016
000290 f4 ac 4a a8 63 81 87 3f 1b f6 74 7f 40 54 d1 3f
       0.011477259229045057 0.2707673306175324
0002a0 25 4b 0d ca 29 b4 94 bf 46 57 c2 a3 61 d7 a3 3f
       -0.020218518216391552 0.03875260471356383
0002b0 ad 9b 6a b6 5d 14 c2 bf bd 83 ac 92 fd 3d af bf
       -0.14124652297070153 -0.06101982512905788
0002c0 93 11 2d 05 e9 4d c0 bf f3 eb 16 21 7d 0a b7 bf
       -0.12737763169037616 -0.09000379617548031
0002d0 25 03 69 10 3a 4c d3 3f fa 2e af aa d0 2f ab 3f
       0.30152751543578155 0.053099175296294335
0002e0 5f 3f 5d b9 1e 1b b2 bf 4f 28 40 77 05 df ba bf
       -0.07072631860250798 -0.10496553574935884
0002f0 cb 71 04 f2 b7 14 d5 3f a8 8c 30 cc 8a fd b2 bf
       0.32938955912120765 -0.07418124661539827
000300 3e 7f 95 65 ec 60 ab bf 7f e4 c2 8c 3d d0 9e bf
       -0.05347384204901438 -0.03009124919546879
000310 36 98 4b 02 c3 40 bf 3f dc c4 08 ac af 7b d1 bf
       0.12208193594014535 -0.273174207689477
000320 63 84 76 e9 bf 48 c1 bf 97 3c a9 20 65 77 8e 3f
       -0.13503264331396556 0.014876165446507534
000330 b8 db 04 40 32 80 d0 bf ec b4 a4 b0 d9 48 d7 bf
       -0.25782448055127416 -0.36382143259363775
000340 58 03 5d 67 62 55 74 3f 2d 98 6d 20 cd 11 c5 3f
       0.0049642413994782295 0.16460575183299522
000350 38 e9 95 50 d5 da b9 bf c0 dc c2 c5 39 84 c9 bf
       -0.10099538056775692 -0.19934770733173046
000360 7e 0d 98 92 5e 96 b8 bf 7e 2e b8 71 08 98 ce 3f
       -0.09604445532754899 0.23901467850406627
000370 71 0d 69 8a 8e a5 ce bf 81 57 06 b9 a8 12 5c 3f
       -0.23942739256208825 0.0017134330447325654
000380 f4 9a ea eb 0c df b4 bf 44 cf 40 6e b0 aa be 3f
       -0.08152848014524833 0.11979201022842029
000390 e9 a0 cd 82 7e a9 c2 3f c0 6b 15 0d a3 ed 1d 3f
       0.1457975519836119 0.00011416728672967915
0003a0 84 eb fc 44 11 fe c8 3f bf 47 22 1c a5 b6 a1 bf
       0.19525352352669867 -0.03459659546309934
0003b0 fc 41 43 ac 89 7b c1 bf 95 82 e9 47 c0 75 a9 3f
       -0.136582573998126 0.04972649457773063
0003c0 69 21 48 1a 6e 3a b6 bf 3e 79 20 75 92 20 af 3f
       -0.08682907239574934 0.06079538039942854
0003d0 fa 21 e9 3c 81 f7 d8 3f 7b 9d 5d 1e ae 80 8c bf
       0.3901064963179405 -0.01391731290978159
0003e0 d2 e6 0f 50 54 25 a1 bf 36 b6 ce ea 5c d1 b2 bf
       -0.03348792531319379 -0.0735071252117557
0003f0 64 92 45 30 4f c8 dd bf 91 85 bc f1 9d dd d6 bf
       -0.4653509112743335 -0.35727642638274754
000400 e6 9d e0 87 d4 fe bb bf 2c 5b 17 53 55 52 c5 3f
       -0.10935715024299206 0.16657511288823323
000410 36 d1 63 16 79 36 d6 bf e2 e1 56 d8 b4 91 cf 3f
       -0.3470747679378009 0.24663410724112028
000420 1f e4 b7 2d 68 25 d3 bf 68 a6 73 fd b6 1c ae 3f
       -0.29915813889198434 0.058812826575217525
000430 15 0c d3 d8 24 31 c7 3f 03 41 a2 1c a4 56 a8 bf
       0.1811872538292795 -0.04753601884397265
000440 80 d0 8e 5c 10 25 b0 3f a0 d9 2d ab ef bb b6 bf
       0.06306555041993711 -0.0888051789205293
000450 c1 52 b2 15 b7 a9 d2 bf 91 c2 b1 f6 30 c7 d5 3f
       -0.2916085922127359 0.34028266993758743
000460 39 f1 67 66 37 59 b4 bf 1e 35 cd e8 e8 48 a1 bf
       -0.07948633432528575 -0.03375938264671617
000470 71 6c 50 4a 1d e5 d7 3f 5a 5a 4a c1 f9 62 cc 3f
       0.3733590341304938 0.2217704957772238
000480 82 d3 d8 bc eb 24 c9 3f 55 72 53 58 88 56 c3 3f
       0.196439234934271 0.1510782653121107
000490 d2 63 4c 33 d2 a0 c5 3f 9b d6 75 fa 48 57 c5 3f
       0.16897037033848378 0.1667262289953911
0004a0 ec 2d b0 19 86 9f a8 3f f5 5f 25 3a cb bd b0 3f
       0.048092070232168854 0.06539602441387145
0004b0 43 ba b0 5e 0d 2d c4 3f 89 4a e8 8d 70 bf 79 bf
       0.15762488483001577 -0.006286086716971292
0004c0 bf 97 8b cd 96 8c cc 3f 3f 06 64 f7 8f e4 d0 bf
       0.22304043804541426 -0.2639503398823741
0004d0 13 04 1b 11 57 a4 67 bf 5e 5b 3f a7 7d 25 cf bf
       -0.0028859806560324135 -0.24333162943249936
0004e0 1d 9a 99 9d 1e ad 7d 3f 07 4b 9e 97 bc 3a 9c bf
       0.007245177833829189 -0.02756781268505917
0004f0 8d ed 9c b6 8c 6c a6 3f ce d5 aa 0d 12 0e c5 bf
       0.04379691819346041 -0.16449189822530602
000500 1f 49 97 d5 a9 8f c1 3f 57 0c 7f 81 86 9a c8 bf
       0.13719675950285024 -0.1922157413774552
000510 a8 84 03 31 87 b8 b4 3f 73 bf a0 46 e7 60 a1 bf
       0.08094067522644599 -0.033942439433643744
000520 7d 03 95 1c 59 d3 d0 3f 4b cd b8 e7 55 03 43 bf
       0.26289966384143054 -0.0005802316149527224
000530 a9 35 9a ef 18 a2 c4 bf 66 28 dc cd e6 a7 d2 3f
       -0.16119682025275253 0.2914978990890006
000540 76 f4 38 da a4 ad be 3f 62 b7 50 36 7a cb d0 3f
       0.11983709647843618 0.26241927437046375
000550 81 bd e9 ac b3 d2 89 bf e2 9c 41 6a 9e db ac bf
       -0.012608913149249503 -0.05636305853914238
000560 04 42 06 58 1d 07 c5 bf 53 4f 1a 49 ad 41 b5 3f
       -0.16427962110584826 0.08303339991317431
000570 4d 03 87 36 fd 9f a6 3f 62 a2 cd d2 98 9b b4 bf
       0.04418937006585697 -0.08049922129215184
000580 f6 48 68 55 d6 78 c9 bf 29 81 94 ca 86 d9 d8 3f
       -0.1990001599338666 0.388276765663266
000590 b6 a4 73 fe ce cd cd bf 59 e2 23 0b d5 d4 95 bf
       -0.23284327911759356 -0.021319702916090175
0005a0 1e 21 fb 08 e3 0e d2 bf c8 9b 95 af ed 8c cb bf
       -0.28215862156913996 -0.21523829530198513
0005b0 68 d5 92 f5 78 70 a7 3f d9 a6 e0 03 b5 31 c6 bf
       0.04577997205471257 -0.1733919400151567
0005c0 3c 9e 02 c2 38 c0 b6 3f dd 82 da c5 e8 28 a6 bf
       0.08887057053163344 -0.04328086295322973
0005d0 46 b7 1e 0c 27 66 b9 bf 5b 5e ae e8 14 56 df bf
       -0.09921497388742492 -0.4896290085102685
0005e0 4e f4 57 e2 cb b1 d5 bf bc e2 bc cb 34 09 c8 bf
       -0.3389768324266854 -0.18778095195900402
0005f0 00 2f ad 08 aa 6a c2 3f ef a7 58 49 9c fc c9 bf
       0.14388013290078305 -0.2030215604912082
000600 5e 0a 12 13 a0 4c c6 3f a4 26 35 92 65 53 b1 bf
       0.17421341830420806 -0.06767878360292429
000610 05 27 b1 83 ce 0b b1 3f 97 a5 3c e6 53 54 d0 bf
       0.06658640589844474 -0.2551469562918895
000620 00 f6 ae ad 5d 76 af bf 32 e9 0a 5c 74 8b a0 bf
       -0.061449935390083255 -0.03231395362441204
000630 98 8a 0a 9a 06 c1 d3 bf b7 bd 00 4a 4e 04 d6 3f
       -0.3086563591297504 0.34401280619473645
000640 96 e4 93 32 ce bc ac 3f 29 86 33 23 67 1e cd bf
       0.05612797133830687 -0.2274903222924405
000650 bd 35 14 a8 f9 d9 d9 bf a1 31 37 87 30 0d cc 3f
       -0.40392915166816207 0.21915251352619428
000660 57 83 56 f1 41 79 d4 3f ce 1c b9 fb 4c b5 ab bf
       0.3199009758773647 -0.05411758969108292
000670 58 d9 3f be 40 45 d4 3f b2 8f 60 b1 e9 e4 a3 3f
       0.316726861753883 0.038855841543664296
000680 60 9d cb 04 b2 ec d4 3f 63 0d 71 9b f6 e8 82 bf
       0.3269467398481165 -0.009233404749585622
000690 3f 2b 49 5d 0a a3 bd 3f 4a 0e 8b 77 8c be cb 3f
       0.11576905038343187 0.21675258481092136
0006a0 9a 74 33 17 13 09 ac bf 9c 7e 08 f9 d8 fb cb bf
       -0.05475673349585826 -0.21862327728103004
0006b0 10 c0 9d 0f ee 37 c0 bf 83 f3 45 4d f0 41 cc 3f
       -0.12670684587965342 0.22076228879077683
0006c0 d2 2b 63 f7 bd 2d a4 bf 1d 40 7f c9 82 3d 89 bf
       -0.039411484192519844 -0.012324353956415785
0006d0 e2 51 8d 4f 8e ad b6 bf 89 61 c8 3f 02 5f bb 3f
       -0.08858575288952111 0.10691846902080306
0006e0 e1 ad 67 f4 17 6b c1 bf c2 15 4a 87 98 01 c2 3f
       -0.13608073648298016 0.14067370038917032
0006f0 e8 54 ad bd a3 13 aa 3f 5b 7b 57 b0 f3 56 b0 3f
       0.050931088355960885 0.06382678084581299
000700 d9 12 f6 91 c0 0b cc 3f 00 8e 9c f9 81 76 b5 bf
       0.21910864951146072 -0.08383953422576695
000710 83 e7 89 c5 9e 22 d3 3f e6 67 a5 70 9e 39 c7 bf
       0.2989880494202383 -0.1814458894758097
000720 62 0b b6 42 f9 8c c3 3f a5 2c e8 86 93 ec cc bf
       0.15273967511538006 -0.22596973502399922
000730 6d fb c0 32 7b c1 88 3f 07 82 12 2b 7a 62 ac bf
       0.012087786184677285 -0.055438821561669065
000740 e1 ea 92 8e 80 42 cd bf 56 87 72 cf bd ce be 3f
       -0.22859198533645667 0.12034212412484399
000750 e4 99 db 20 0f d6 c9 bf a5 53 94 6e d0 3f b0 bf
       -0.2018450651587066 -0.06347372722332396
000760 ba 04 11 7e 10 fc d2 bf 9e bd 0b f8 cc 7b d4 bf
       -0.29663479148082283 -0.3200561926195976
000770 d9 6f a1 e3 dc db b6 3f 66 5b 01 88 c1 59 ba bf
       0.0892923408259202 -0.1029320675892059
000780 57 55 ab e8 8a da c9 bf 05 60 cc 15 69 fc be bf
       -0.20198189125828023 -0.12103897840677298
000790 5c 9c 0f 1c e5 77 b1 bf cb d3 29 de bf 47 6f 3f
       -0.06823570189554701 0.003818392507407319
0007a0 12 73 fe 02 83 59 d0 3f 97 94 b8 b4 8a 3a b0 bf
       0.2554633645284393 -0.06339327728399478
0007b0 9b 67 13 cd fc 54 b5 bf 71 7d 39 a8 9b 2c cc 3f
       -0.08332805639966383 0.22011132921305035
0007c0 f8 8a 03 3d b6 dc d8 3f 48 e0 c6 a2 22 11 cf 3f
       0.38847118337996234 0.2427104277428518
0007d0 96 7d 7f d8 e0 ce bd bf 46 45 1e 8d bb 10 c2 bf
       -0.11643796239467571 -0.1411356391004494
0007e0 6e ee 58 65 bd 4e cf 3f 55 94 1e f3 5d 59 d3 3f
       0.24459044884303033 0.30232952825673937
0007f0 51 31 55 5d c1 1a d0 bf ae e8 0f 35 84 52 d2 3f
       -0.25163301577119507 0.2862864034829141
